models/grayscale_eye_32.tflite (tflite, 407916 bytes, 6 tensors)

sequential/conv2d/BiasAdd/ReadVariableOp f4 [32]
-0.0068868557 0.024046414 0.05091616 0.010366421 -0.039130908 0.03433844 0.009063045 -0.012936736
0.00015242468 0.06767375 0.014282705 0.022748707 0.026582548 -0.06968628 0.0 0.022868747
-0.00014131592 0.1235641 0.010549322 0.055565454 -0.018598834 0.118288144 0.13831808 -0.06369938
0.02628304 -0.00037547713 -0.036710422 0.014625337 -0.01892535 -0.005714568 -0.029232608 -0.047284435
00000000: 22ab e1bb fcfc c43c 778d 503d ecd7 293c
00000010: bb47 20bd 77a6 0c3d 2a7d 143c 9bf4 53bc
00000020: 30d4 1f39 8998 8a3d 0202 6a3c 7f5b ba3c
00000030: a5c3 d93c aeb7 8ebd 0000 0000 3d57 bb3c
00000040: 342e 14b9 2d0f fd3d 10d7 2c3c 9a98 633d
00000050: 955c 98bc 0e41 f23d 41a3 0d3e d274 82bd
00000060: 884f d73c b0db c4b9 ab5d 16bd 1c9f 6f3c
00000070: 5609 9bbc 4541 bbbb 3979 efbc 53ad 41bd

sequential/conv2d/Conv2D f4 [32, 3, 3, 3]
-0.07541438 -0.11361483 -0.15700334 -0.0048381765 -0.12526287 -0.06742384 0.084273234 0.027985997
-0.023861099 0.04425734 -0.120422676 -0.009042787 0.12888072 0.03972931 0.033011697 0.11526408
0.022722539 0.07938643 0.09626345 -0.12595241 0.122240715 0.15139906 0.13012506 -0.028493261
-0.0010575643 -0.06617643 -0.10790726 -0.005468546 0.11190102 -0.040803567 0.06570328 0.15278256
0.04911507 -5.711409e-05 0.03274875 0.13206583 0.02182539 -0.026459452 0.07078666 -0.118709736
0.011100841 -0.06577527 0.014808514 0.037225444 -0.090874925 -0.15093984 -0.13238196 -0.13428743
0.041845113 -0.15095323 -0.0019427979 0.13308842 -0.037855156 0.07869315 0.02573259 0.08441541
-0.047920324 -0.12887295 0.025881924 -0.013718285 0.07364217 -0.09323119 0.05574316 -0.110045224
-0.10021527 -0.07972574 -0.0943947 0.058247816 -0.11401298 -0.08506077 -0.0004855139 0.031329844
0.04634429 -0.13530393 -0.09086713 0.065861605 0.062703826 -0.10190032 0.13835393 0.2042055
0.21187429 -0.080655836 0.008516122 -0.111043446 0.023737185 0.08194529 -0.13116506 -0.018284272
-0.05888374 -0.100095734 -0.12082022 -0.015081255 -0.14819245 0.1334823 -0.06352158 0.017494844
0.12330926 0.14766397 0.16195683 -0.08071949 -0.16140741 -0.14682198 -0.00024655415 0.03637701
0.16410576 0.006092169 0.09641314 -0.031004941 -0.03947664 0.004866891 -0.026334161 -0.048532512
0.15318173 -0.069401376 0.038976002 -0.012437689 0.04051948 0.12106624 0.02283026 0.010897728
0.08772796 -0.098657124 -0.070810564 -0.0035318893 -0.096216395 0.07303483 0.009006396 0.08331201
0.09798846 -0.15049355 0.027254779 -0.052234888 -0.054847755 -0.02084365 0.079404026 -0.07807497
-0.055981115 -0.028306691 -0.019013638 0.02519553 0.0593622 -0.13162261 0.10743052 -0.13852905
0.1845904 0.06521102 0.19267198 -0.053507715 -0.10398086 -0.069710456 -0.084993705 -0.1567348
-0.01774074 -0.053057574 0.02884405 0.10231301 0.052946966 -0.103824645 0.01988069 0.044999644
0.017571677 0.022591934 -0.09461274 -0.074582934 0.092807844 -0.084772006 -0.0858223 -0.01943375
0.034514014 -0.0005586265 -0.1554586 0.18703698 0.1944461 -0.049219344 -0.096880086 0.111137755
0.10934165 -0.04526382 -0.10380865 -0.1193598 -0.06545804 0.14518262 -0.0042858087 0.17091703
0.027896183 0.11521829 -0.15373294 0.092699334 -0.1347697 -0.0023904839 0.06656584 0.0035893607
-0.06905222 0.103968754 0.14812766 0.11484267 0.07897867 -0.06868262 0.12890987 -0.0318567
-0.0019386064 0.112098545 -0.12686437 -0.044870716 0.07603727 0.104288206 -0.009511416 0.102461025
0.04664629 0.09160996 0.057989873 0.07214527 0.010588859 -0.0026669481 0.073375866 0.05595225
0.10682316 0.07243836 -0.089351125 -0.116820514 0.0565816 -0.08875339 -0.070234366 0.0022470749
-0.04534229 0.0460517 -0.05090007 -0.16463464 -0.113394156 0.037106954 0.1408194 0.007865458
0.13815044 0.09906902 -0.16003187 -0.07303681 -0.06822996 0.08214539 0.09780604 0.069695674
0.029759388 0.021147102 0.077956595 0.07921511 0.028836416 0.030372445 -0.09622021 -0.0660121
-0.026324278 0.199116 -0.01045997 0.12163762 -0.16108249 -0.028285682 0.05888113 0.13668
00000000: db72 9abd e4ae e8bd 7cc5 20be 9189 9ebb
00000010: e944 00be 8315 8abd 7297 ac3d e442 e53c
00000020: 5a78 c3bc 2f47 353d 2aa0 f6bd 3328 14bc
00000030: 4ff9 033e 33bb 223d 4637 073d 930f ec3d
00000040: 9e24 ba3c 5a95 a23d c625 c53d abf9 00be
00000050: 5759 fa3d 5b08 1b3e 813f 053e b36a e9bc
00000060: f89d 8aba 8287 87bd 7bfe dcbd 7d31 b3bb
00000070: 5d2c e53d a421 27bd 718f 863d 0873 1c3e
00000080: e22c 493d ca8d 6fb8 8e23 063d 443c 073e
00000090: 29cb b23c 7ec1 d8bc 99f8 903d 171e f3bd
000000a0: 4de0 353c 2fb5 86bd 699f 723c b579 183d
000000b0: a21c babd f98f 1abe 238f 07be a582 09be
000000c0: c865 2b3d 7c93 1abe 7ba5 feba 5548 083e
000000d0: 020e 1bbd e029 a13d 27cd d23c fde1 ac3d
000000e0: 1a48 44bd 45f7 03be 5406 d43c a8c2 60bc
000000f0: b5d1 963d ffef bebd f152 643d 645f e1bd
00000100: aa3d cdbd 4047 a3bd 0252 c1bd 4395 6e3d
00000110: a37f e9bd 5734 aebd 938c feb9 b953 003d
00000120: 83d3 3d3d 1d8d 0abe 8c18 babd 73e2 863d
00000130: dd6a 803d 1db1 d0bd a7ac 0d3e 3f1b 513e
00000140: 93f5 583e e32e a5bd 3487 0b3c bf6a e3bd
00000150: 7c74 c23c efd2 a73d 2250 06be e6c8 95bc
00000160: 1430 71bd fefe ccbd 9770 f7bd 5e17 77bc
00000170: c3bf 17be 96af 083e 9a17 82bd 5951 8f3c
00000180: 9189 fc3d 3935 173e 03d8 253e 4350 a5bd
00000190: fc47 25be 8058 16be f043 81b9 0f00 153d
000001a0: 570b 283e d1a0 c73b 4174 c53d 13fe fdbc
000001b0: 42b2 21bd 717a 9f3b bdba d7bc 07ca 46bd
000001c0: acdb 1c3e 4f22 8ebd 4da5 1f3d 73c7 4bbc
000001d0: c1f7 253d 94f1 f73d 8706 bb3c 628c 323c
000001e0: b7aa b33d bf0c cabd 2105 91bd 4577 67bb
000001f0: 1a0d c5bd 4993 953d 908f 133c 7d9f aa3d
00000200: 2cae c83d fb1a 1abe 6a45 df3c 40f4 55bd
00000210: 0aa8 60bd 4dc0 aabc 949e a23d c5e5 9fbd
00000220: 744c 65bd 6fe3 e7bc 7dc2 9bbc db66 ce3c
00000230: c725 733d 14c8 06be 8804 dc3d 8fda 0dbe
00000240: 4405 3d3e 5b8d 853d ce4b 453e e82a 5bbd
00000250: ebf3 d4bd 5bc4 8ebd 2e11 aebd 167f 20be
00000260: 0755 91bc e652 59bd 5b4a ec3c 7c89 d13d
00000270: ebde 583d 04a2 d4bd d4dc a23c 8c51 383d
00000280: 7af2 8f3c b812 b93c 53c4 c1bd f0be 98bd
00000290: 0a12 be3d f29c adbd 9ac3 afbd 8733 9fbc
000002a0: 915e 0d3d ca70 12ba 8a30 1fbe 9f86 3f3e
000002b0: e11c 473e 399a 49bd 1169 c6bd 319c e33d
000002c0: 84ee df3d 8e66 39bd a199 d4bd e972 f4bd
000002d0: dd0e 86bd c1aa 143e f86f 8cbb e004 2f3e
000002e0: 8986 e43c 91f7 eb3d 2b6c 1dbe 26d9 bd3d
000002f0: 1101 0abe aaa9 1cbb ac53 883d 7b3b 6b3b
00000300: 406b 8dbd 92ed d43d c7ae 173e a232 eb3d
00000310: 92bf a13d 79a9 8cbd f300 043e 2c7c 02bd
00000320: d618 feba ec93 e53d bce8 01be 5bca 37bd
00000330: 6eb9 9b3d 0e95 d53d c5d5 1bbc 16d7 d13d
00000340: 2e10 3f3d 019e bb3d ca86 6d3d e6c0 933d
00000350: e57c 2d3c f7c7 2ebb 1646 963d 302e 653d
00000360: 1ac6 da3d 905a 943d b9fd b6bd 983f efbd
00000370: 1cc2 673d 56c4 b5bd 09d7 8fbd a943 133b
00000380: d6b8 39bd b5a0 3c3d 987c 50bd fc95 28be
00000390: 323b e8bd 76fd 173d f632 103e 1fde 003c
000003a0: 4f77 0d3e b3e4 ca3d 65df 23be 5394 95bd
000003b0: 26bc 8bbd d83b a83d 884e c83d 9bbc 8e3d
000003c0: f6c9 f33c b03c ad3c b5a7 9f3d 883b a23d
000003d0: 593a ec3c a2cf f83c 1a0f c5bd 5a31 87bd
000003e0: 03a6 d7bc 11e5 4b3e 4b60 2bbc 251d f93d
000003f0: cff2 24be 60b7 e7bc 572d 713d d8f5 0b3e

sequential/dense/BiasAdd/ReadVariableOp f4 [16]
0.022907818 0.0 -0.0109289205 -0.007766364 0.013042919 -0.0057320627 0.024043726 0.024584318
-0.006005012 0.026978908 -0.006004748 -0.005176245 -0.009759886 -0.0067799985 -0.006003991 -0.0063052373
00000000: 2da9 bb3c 0000 0000 370f 33bc fc7c febb
00000010: f8b1 553c 07d4 bbbb 59f7 c43c 0d65 c93c
00000020: b1c5 c4bb df02 dd3c 7ac3 c4bb 7d9d a9bb
00000030: eee7 1fbc c02a debb 20bd c4bb 2a9c cebb

sequential/dense_1/BiasAdd/ReadVariableOp f4 [2]
-0.0046374793 0.004637473
00000000: fff5 97bb f1f5 973b

sequential/dense/MatMul f4 [16, 6272]
0.020207826 0.012939166 0.021764731 0.03815887 -0.03074897 0.036631405 0.07809815 -0.020000104
0.026681922 0.06522895 0.038814094 0.053306084 0.048378576 0.0086921435 0.012145035 0.077198446
-0.004890939 0.060078498 0.013594807 0.0028365771 0.020818643 -0.002985404 -0.0038403529 -0.0047601494
-0.0022196998 0.0137309795 0.01352662 0.03098248 -0.016196843 0.030335665 -0.0012727983 -0.0136903925
0.000831254 0.055710454 0.024927719 0.024663568 -0.030791195 0.045909368 0.08082729 -0.024080148
0.03755977 0.04161387 0.079803936 0.015520684 0.0640176 -0.027483907 -5.3085387e-07 0.057647184
0.027978875 0.024005255 0.028234908 -0.008482825 -0.017822072 -0.053084698 -0.0061636004 -0.011925445
0.009699739 0.009130309 -0.026880622 0.0067830123 -0.006318198 0.0494427 0.0201897 -0.02502309
0.03305168 -0.006285749 0.028331667 0.051762022 -0.010980681 0.0467928 0.036781218 -0.030643713
0.04141804 0.02710851 0.024028372 0.03373225 0.05959416 -0.02000666 -0.0020544399 0.0574387
0.019765388 0.030724991 -0.00075984077 0.012697078 -0.028210562 -0.0030847949 0.005034869 -0.031010894
-0.011144457 0.01870621 0.008078504 -0.0009234331 -0.021448106 0.023301346 -0.025030343 0.012510065
0.06393236 0.014841869 0.022501979 0.07935697 -0.010366793 0.014976763 0.043143567 -0.0042339335
0.062161755 0.02286601 0.011253182 0.03370154 0.03569287 -0.0093789585 -0.014211938 0.035354137
0.0049476605 -0.0003867477 0.022875989 0.013278273 0.028363237 -0.024016965 0.008067324 -0.034574736
0.022979693 0.056157555 -0.015299806 -0.037089422 -0.023483552 0.053155698 -0.020921823 -0.01734823
0.047227174 0.018332597 0.0050378977 0.09369586 -0.027932465 0.040818933 0.023149937 0.0025962791
0.07409802 0.007815623 0.058892768 0.018279377 0.024498858 0.01845012 -0.0222099 0.03652378
0.027348366 -0.024148913 0.029711457 0.010327574 0.029004365 -0.015950968 0.019126216 0.0062297494
0.014479801 0.010620308 -0.029530855 -0.010033294 0.014948015 0.043150816 -0.00031765967 0.0076221535
0.06043864 0.015037189 0.056443356 0.041473668 0.014156614 0.0007197204 0.0498354 -0.0045623076
0.074845314 -0.008529081 0.028324815 0.008366536 0.043349743 0.004333439 0.016842678 0.03692339
0.009719276 0.00078506634 -0.008007911 0.052315705 0.0065444987 0.009025038 0.024990322 -0.011683121
0.006110598 0.033107836 0.028366992 0.015021277 0.01013147 0.043766245 0.013371079 0.021468045
0.046848454 -0.00512799 0.03893082 0.083007984 -0.01981831 0.03851219 0.054253038 0.033254735
0.09712851 -0.01457624 0.060867183 0.024314702 0.069079585 -0.021197414 -0.02885898 0.039338723
-0.017530179 -0.04452201 0.016457958 0.020275284 0.0043314286 0.023291597 0.03142718 -0.020594785
0.026562665 0.035306677 -0.0007941795 -0.023955157 0.019645642 0.045146048 -0.008796517 0.025656823
0.05236849 -0.000247169 0.017667972 0.05249371 0.0053809197 0.04382088 0.069757976 0.018347533
0.046857867 -0.019774592 0.07515184 -0.021170828 0.048321597 -0.0054360046 -0.029384302 0.067844726
-0.0004520615 -0.02413674 0.051800422 0.050911903 0.009179964 0.009684891 0.04050268 -0.012454198
0.008417162 0.043012086 0.0036054596 0.019669347 -0.010844161 0.07665131 -0.027111806 -0.0235155
00000000: e28a a53c ccfe 533c f34b b23c 7a4c 1c3d
00000010: 44e5 fbbc d00a 163d ecf1 9f3d 42d7 a3bc
00000020: 0c94 da3c c196 853d 87fb 1e3d 7b57 5a3d
00000030: 9d28 463d 7e69 0e3c f8fb 463c 381a 9e3d
00000040: 2c44 a0bb df14 763d c1bc 5e3c dee5 393b
00000050: dc8b aa3c c5a6 43bb 6eae 7bbb 07fb 9bbb
00000060: 6278 11bb e7f7 603c c29e 5d3c f8ce fd3c
00000070: 3eaf 84bc 8082 f83c 06d4 a6ba ab4d 60bc
00000080: 83e8 593a a530 643d 3735 cc3c 400b ca3c
00000090: d13d fcbc 760b 3c3d c788 a53d bb43 c5bc
000000a0: 46d8 193d 4e73 2a3d 3f70 a33d 784a 7e3c
000000b0: a91b 833d ee25 e1bc 0080 0eb5 741f 6c3d
000000c0: f433 e53c aba6 c43c e54c e73c 8cfb 0abc
000000d0: 98ff 91bc 576f 59bd 07f8 c9bb f162 43bc
000000e0: a7eb 1e3c 4b97 153c c034 dcbc 0844 de3b
000000f0: e308 cfbb 6e84 4a3d df64 a53c 39fd ccbc
00000100: 3361 073d aff8 cdbb d017 e83c 6a04 543d
00000110: 50e8 33bc cfa9 3f3d e7a7 163d 8608 fbbc
00000120: f6a5 293d aa12 de3c 26d7 c43c d42a 0a3d
00000130: 0219 743d 02e5 a3bc c8a3 06bb d844 6b3d
00000140: 06eb a13c fab2 fb3c 0d30 47ba 6807 503c
00000150: d619 e7bc 452a 4abb 8bfb a43b 8f0a febc
00000160: 3e97 36bc c43d 993c b45b 043c 8c12 72ba
00000170: f0b3 afbc 77e2 be3c 6f0c cdbc 04f7 4c3c
00000180: f8ee 823d 4f2b 733c 1256 b83c e885 a23d
00000190: 7bd9 29bc 1961 753c 4fb7 303d cfbc 8abb
000001a0: 539d 7e3d 8051 bb3c 445f 383c a00a 0a3d
000001b0: b032 123d 34aa 19bc 30d9 68bc 80cf 103d
000001c0: fc1f a23b 66c4 cab9 6d66 bb3c 1d8d 593c
000001d0: 055a e83c 3abf c4bc cf2c 043c 3d9e 0dbd
000001e0: e93f bc3c 7705 663d 0aac 7abc 14eb 17bd
000001f0: 9460 c0bc cab9 593d 3e64 abbc e01d 8ebc
00000200: 4871 413d 3e2e 963c f314 a53b 9de3 bf3d
00000210: a0d2 e4bc c131 273d f0a4 bd3c 5626 2a3b
00000220: b4c0 973d 190d 003c 8b39 713d a2be 953c
00000230: d4b1 c83c b524 973c 89f1 b5bc f699 153d
00000240: ae09 e03c f1d3 c5bc 7165 f33c fc34 293c
00000250: 909a ed3c 9bab 82bc 95ae 9c3c ed22 cc3b
00000260: b03c 6d3c cd00 2e3c b1ea f1bc af62 24bc
00000270: 85e8 743c e9be 303d 8f8b a6b9 42c3 f93b
00000280: 828e 773d 8b5e 763c 2631 673d 4be0 293d
00000290: 25f1 673c 9eab 3c3a 3420 4c3d 697f 95bb
000002a0: 8048 993d 8fbd 0bbc 7109 e83c cc13 093c
000002b0: 808f 313d 85ff 8d3b a8f9 893c fb3c 173d
000002c0: 993d 1f3c e9cc 4d3a 9d33 03bc fe48 563d
000002d0: 3c73 d63b c1dd 133c 81b8 cc3c 906a 3fbc
000002e0: 693b c83b 159c 073d e561 e83c cd1b 763c
000002f0: 77fe 253c 3c44 333d 5f12 5b3c c1dd af3c
00000300: 2ae4 3f3d b308 a8bb ec75 1f3d 1700 aa3d
00000310: 025a a2bc f5be 1d3d 6f38 5e3d 1e36 083d
00000320: 50eb c63d 2fd1 6ebc de4f 793d a02f c73c
00000330: 9979 8d3d 33a6 adbc ab69 ecbc a421 213d
00000340: 739b 8fbc b65c 36bd d7d2 863c 5a18 a63c
00000350: a8ee 8d3b 05ce be3c c9b9 003d 65b6 a8bc
00000360: f299 d93c bc9d 103d 7c30 50ba 9b3d c4bc
00000370: e6ef a03c 10eb 383d 441f 10bc 422e d23c
00000380: 5780 563d 7696 81b9 6cbc 903c a503 573d
00000390: 6d52 b03b 867d 333d 45dd 8e3d 914d 963c
000003a0: 09ee 3f3d 53fe a1bc 35e9 993d 726e adbc
000003b0: deec 453d 8320 b2bb 59b7 f0bc 2df2 8a3d
000003c0: ab02 edb9 6aba c5bc ae2c 543d 0089 503d
000003d0: 8f67 163c 61ad 1e3c 23e6 253d b10c 4cbc
000003e0: 23e8 093c 712d 303d 9349 6c3b 9c21 a13c
000003f0: b5ab 31bc 5dfb 9c3d 9419 debc 94a3 c0bc

sequential/dense_1/MatMul f4 [2, 16]
-0.5719436 -0.26368457 0.16549917 -0.33115715 0.5272165 0.1414725 0.13214943 0.3719091
0.37205252 0.36235842 0.25165352 0.20620608 0.38681915 -0.20549904 -0.418662 0.29918185
0.19377334 -0.061581194 -0.27087307 -0.13055576 0.2920412 -0.33196205 0.5185228 0.6736967
-0.15416397 0.65138453 -0.1523347 0.10289506 -0.37186652 -0.5871057 0.37915492 0.0435125
00000000: e56a 12bf aa01 87be 9d78 293e 6e8d a9be
00000010: a9f7 063f 2bde 103e 2e52 073e df6a be3e
00000020: ab7d be3e 0b87 b93e bbd8 803e b027 533e
00000030: 290d c63e 576e 52be de5a d6be 5d2e 993e
00000040: 856c 463e 903c 7cbd e0af 8abe 69b0 05be
00000050: 6d86 953e eef6 a9be e9bd 043f 6377 2c3f
00000060: 29dd 1dbe 23c1 263f a1fd 1bbe a5ba d23d
00000070: 4a65 bebe 8f4c 16bf 9820 c23e 2a3a 323d
