models/grayscale_mouth_32.tflite (tflite, 407980 bytes, 6 tensors)

sequential_1/conv2d_1/BiasAdd/ReadVariableOp f4 [32]
0.019689133 -0.016281616 0.031829104 -0.005518113 -0.01844047 0.004491428 -0.017315108 0.09896741
0.07742374 0.01707097 0.061831743 0.05512335 0.02072213 0.023765808 0.046801966 0.011492879
0.026052114 0.045112398 0.05899346 -0.0040590586 0.0054761088 0.03321813 0.044843167 0.011531606
0.12728801 0.046517387 0.04995673 0.082090415 -0.051485498 0.027464844 -0.045289047 0.13714375
00000000: 1b4b a13c 0661 85bc 3c5f 023d 49d1 b4bb
00000010: 7810 97bc d42c 933b 6ad8 8dbc 6daf ca3d
00000020: 5690 9e3d 6bd8 8b3c 4843 7d3d 06c9 613d
00000030: 75c1 a93c 83b0 c23c 6bb3 3f3d a14c 3c3c
00000040: 3e6b d53c c7c7 383d 20a3 713d da01 85bb
00000050: ee70 b33b bc0f 083d 78ad 373d 10ef 3c3c
00000060: ca57 023e 0489 3e3d 6e9f 4c3d 051f a83d
00000070: 75e2 52bd f4fd e03c 0281 39bd 696f 0c3e

sequential_1/conv2d_1/Conv2D f4 [32, 3, 3, 3]
-0.118668325 -0.111074954 -0.034255765 -0.07502704 -0.13411817 -0.018679958 -0.058409467 0.028305756
0.004209486 -0.16291739 -0.13856612 0.05448286 -0.026150225 -0.04533528 0.07076632 -0.0015010928
0.012119778 0.10729741 -0.13552079 0.035656396 0.10300083 0.04385709 0.06597785 0.08358709
0.014317694 0.04254025 0.15405788 -0.07164426 -0.0057502324 0.11176626 -0.041027743 0.08300159
-0.079864584 0.0008722602 -0.040459804 -0.07981053 0.10918655 -0.050413918 -0.09308458 -0.13369244
0.12506714 -0.0516262 0.07340757 0.009903508 0.14017983 -0.092299014 -0.068212554 -0.15092142
0.12245661 0.1377266 0.14856242 -0.004162137 0.0012864223 -0.073998 -0.072348654 0.048357382
0.14682767 0.045287002 0.07111132 -0.006937522 -0.06851462 0.041992288 0.045552846 -0.03733291
0.04827579 -0.020773958 0.113174945 0.14694971 0.034070708 0.066032685 -0.100234434 0.15080883
0.08864713 -0.022637244 0.106768996 -0.08377283 -0.0755678 -0.010798343 0.003978745 0.14615446
0.14381331 -0.07239092 -0.097064815 -0.045878693 -0.12300888 -0.12675536 0.051459953 -0.060695864
0.08979144 -0.06876736 0.042563636 0.04738121 -0.13051866 0.04187341 -0.08290989 -0.08409098
0.052057043 -0.044467375 -0.08422533 -0.01519069 0.11015546 -0.07092274 0.02535671 -0.03596004
-0.013048761 -0.09142383 0.13178383 -0.0946624 -0.07923576 0.0025361963 -0.06654802 0.078616925
0.06667408 -0.11891342 0.010200785 -0.09575312 -0.045017447 -0.15208496 -0.014061903 -0.1607657
-0.014757847 -0.030314406 -0.009620152 0.008444835 -0.04909882 -0.14234212 0.085452765 0.094132364
0.15702362 0.10399357 -0.054811418 0.06790553 0.12878671 0.050027676 0.14580037 -0.121580094
-0.0036966032 0.13425316 -0.056600053 0.015546181 -0.08904475 0.12886946 -0.11180246 -0.13755496
-0.0685109 0.009483068 -0.11446831 0.03130594 0.07622877 0.103095934 0.13418953 0.11505338
-0.11695149 0.03694021 -0.12993602 -0.14124313 -0.065720856 0.01776158 0.07878129 -0.031225938
-0.07651966 -0.04588325 0.074018605 0.15219137 -0.009853849 0.060870517 0.07574275 -0.01632055
-0.15070055 -0.125624 -0.09790383 0.11210701 0.1487597 0.12872775 -0.019269183 0.095402844
0.034542486 -0.06365939 -0.030192161 -0.09083805 -0.011156499 0.0021276954 -0.026542125 0.07895878
-0.024594843 0.038645662 -0.11580229 -0.04702595 -0.13609809 0.11162221 0.041787535 0.1534156
0.021583142 -0.016098313 -0.05765745 0.030463675 0.0074034305 0.012691353 -0.031752314 0.04317893
-0.010045185 0.05789859 0.1575461 0.035985522 0.07590425 0.031890076 0.17673233 -0.018519983
0.03988081 -0.04493997 -0.17684355 -0.056429986 -0.105138585 -0.18615724 -0.13038747 -0.19985898
0.088542454 0.029290449 -0.0063720853 0.124070495 0.100999035 -0.11266957 -0.10567807 0.080077864
-0.11601621 0.17843044 -0.00664963 -0.0053358935 0.020607661 -0.034223013 -0.092352845 -0.17828298
-0.12103149 -0.016311377 0.1681268 0.12276527 -0.041254222 0.12307662 0.087966606 -0.012679177
-0.1709995 -0.19367804 -0.041876845 0.019623453 0.06381801 0.10769957 0.07272417 -0.11265722
-0.059014197 0.11518657 0.10856955 -0.008833699 0.05343111 0.069461554 -0.045988075 0.018558757
00000000: 6108 f3bd 447b e3bd c64f 0cbd c7a7 99bd
00000010: 4656 09be b606 99bc c43e 6fbd 79e1 e73c
00000020: baef 893b d1d3 26be 47e4 0dbe 6b29 5f3d
00000030: ff38 d6bc 7db1 39bd efed 903d 51c0 c4ba
00000040: 0992 463c bfbe db3d f6c5 0abe 710c 123d
00000050: 19f2 d23d 7ea3 333d 651f 873d b52f ab3d
00000060: c394 6a3c af3e 2e3d 59c1 1d3e 3aba 92bd
00000070: 726c bcbb b5e5 e43d b50c 28bd bdfc a93d
00000080: 0b90 a3bd 64a8 643a 2eb9 25bd b473 a3bd
00000090: 339d df3d d37e 4ebd 21a3 bebd ace6 08be
000000a0: 9a11 003e ff75 53bd b556 963d 5342 223c
000000b0: 4d8b 0f3e 4407 bdbd 06b3 8bbd 258b 1abe
000000c0: 88ca fa3d 3408 0d3e bf20 183e 8962 88bb
000000d0: 2b9d a83a 438c 97bd 882b 94bd 6412 463d
000000e0: fe59 163e dd7e 393d d0a2 913d 2754 e3bb
000000f0: 6551 8cbd 1b00 2c3d 9f95 3a3d 65ea 18bd
00000100: d6bc 453d 262e aabc 44c8 e73d fc79 163e
00000110: ba8d 0b3d 253c 873d b647 cdbd a16d 1a3e
00000120: a08c b53d be71 b9bc b4a9 da3d 1791 abbd
00000130: 4ac3 9abd 89eb 30bc 2260 823b 84a9 153e
00000140: cc43 133e b141 94bd ebc9 c6bd 4ceb 3bbd
00000150: 14ec fbbd 28cc 01be acc7 523d 3a9c 78bd
00000160: 93e4 b73d e7d5 8cbd 3557 2e3d cd12 423d
00000170: afa6 05be 7483 2b3d a9cc a9bd e437 acbd
00000180: c439 553d 6c23 36bd 547e acbd 5fe2 78bc
00000190: 3099 e13d f13f 91bd e0b8 cf3c d64a 13bd
000001a0: 78ca 55bc 6b3c bbbd 57f2 063e 5cde c1bd
000001b0: 5c46 a2bd 5036 263b 544a 88bd e901 a13d
000001c0: 6c8c 883d e188 f3bd 3121 273c 361a c4bd
000001d0: 3764 38bd 29bc 1bbe e563 66bc c39f 24be
000001e0: e6ca 71bc eb55 f8bc d89d 1dbc 355c 0a3c
000001f0: d81b 49bd 22c2 11be dc01 af3d 78c8 c03d
00000200: cdca 203e 95fa d43d f081 60bd 0e12 8b3d
00000210: aae0 033e d2e9 4c3d b14c 153e fcfe f8bd
00000220: b642 72bb a979 093e 75d5 67bd 69b5 7e3c
00000230: 185d b6bd 5bf6 033e b0f8 e4bd 35db 0cbe
00000240: 714f 8cbd df5e 1b3c 5c6e eabd a83a 003d
00000250: d41d 9c3d f623 d33d fb68 093e 1ba1 eb3d
00000260: 4384 efbd 9e4e 173d f30d 05be 0aa2 10be
00000270: a898 86bd bc80 913c 1658 a13d 8acd ffbc
00000280: 57b6 9cbd 13f0 3bbd 1197 973d 0ed8 1b3e
00000290: 0a72 21bc 5d53 793d 041f 9b3d adb2 85bc
000002a0: 3f51 1abe 94a3 00be ce81 c8bd 5c98 e53d
000002b0: 7654 183e 35d1 033e 68da 9dbc 9162 c33d
000002c0: 6c7c 0d3d db5f 82bd 8d55 f7bc 4d09 babd
000002d0: c0c9 36bc ce70 0b3b df6e d9bc 24b5 a13d
000002e0: 207b c9bc ea4a 1e3d c029 edbd 489e 40bd
000002f0: 4c5d 0bbe 2f9a e43d 6829 2b3d fb18 1d3e
00000300: 21cf b03c 9ce0 83bc 382a 6cbd f58e f93c
00000310: 7a98 f23b 65ef 4f3c b70e 02bd 64dc 303d
00000320: 8f94 24bc 1227 6d3d c453 213e 8e65 133d
00000330: b073 9b3d 2b9f 023d 52f9 343e 38b7 97bc
00000340: 0f5a 233d f912 38bd 7a16 35be 2123 67bd
00000350: e652 d7bd 01a0 3ebe 4b84 05be d5a7 4cbe
00000360: bf55 b53d 86f2 ef3c edcc d0bb ac18 fe3d
00000370: 95d8 ce3d 4ebf e6bd be6d d8bd ddff a33d
00000380: e899 edbd 78b6 363e 24e5 d9bb b8d8 aebb
00000390: 66d1 a83c 6e2d 0cbd 7d23 bdbd d08f 36be
000003a0: 5cdf f7bd 709f 85bc 6f29 2c3e 5c6c fb3d
000003b0: 30fa 28bd 980f fc3d d627 b43d 53bc 4fbc
000003c0: 7e1a 2fbe 8953 46be 0e87 2bbd 5dc1 a03c
000003d0: 04b3 823d 9891 dc3d 69f0 943d d4b8 e6bd
000003e0: dfb8 71bd f0e6 eb3d b659 de3d 38bb 10bc
000003f0: 94da 5a3d dc41 8e3d fe5d 3cbd 8908 983c

sequential_1/dense_3/BiasAdd/ReadVariableOp f4 [2]
0.09091826 -0.09091824
00000000: 5a33 ba3d 5833 babd

sequential_1/dense_2/BiasAdd/ReadVariableOp f4 [16]
-0.005996142 -0.0039640674 -0.025095107 -0.0028470121 -0.0060052453 0.07003626 -0.004968008 -0.0029092303
-0.0052440935 -0.0033953087 -0.004564312 -0.0060051368 -0.004041304 -0.005345075 -0.006318107 -0.0060038823
00000000: 497b c4bb 02e5 81bb 4194 cdbc f094 3abb
00000010: a6c7 c4bb 2c6f 8f3d acca a2bb c9a8 3ebb
00000020: a5d6 abbb d483 5ebb 3990 95bb bdc6 c4bb
00000030: ea6c 84bb bd25 afbb 1f08 cfbb 37bc c4bb

sequential_1/dense_2/MatMul f4 [16, 6272]
-0.025889784 -0.0020490775 -0.036088984 -0.023418134 -0.009553886 -0.023749808 -0.013251221 -0.00088965707
-0.02307088 0.0044824015 -0.028141791 0.027500637 -0.004135705 -0.014601689 0.025393788 0.025000077
-0.013245457 -0.026835604 -0.027943075 -0.01737872 -0.0011733312 0.020119116 -0.002896633 -0.030728225
0.021393005 0.025570977 -0.016091907 0.021747664 0.00043587122 0.01377323 -0.0113097 0.00029209442
0.019818258 -0.03097709 -0.029732475 -0.007766839 -0.024266867 0.007447526 -0.036225896 -0.008618562
0.004891228 -0.025637044 -0.021627301 -0.025930693 -0.016353874 0.0025063446 -0.023729466 0.0068729133
-0.026741343 -0.012147437 -0.016910266 0.024087839 -0.022322897 -0.029511621 0.027726829 0.021543918
-0.025435664 0.008367807 0.013695728 -0.021197781 -0.01589661 -0.033523273 -0.033802364 0.0073108263
-0.031363647 0.0134523725 -0.036663044 0.024619382 -0.035614043 0.01257357 -0.025641024 0.013090704
0.012317285 -0.02875499 -0.003199819 -0.020944696 0.007967462 -0.0027897002 0.026327316 -0.028434997
0.0026346804 -0.027841348 -0.03032834 0.016221652 -0.022390692 0.015144208 -0.02302233 -0.026912693
-0.030785304 -0.015030304 0.028838646 -0.010025542 -0.027535666 0.0010770145 -0.014545395 -0.006200388
-0.025083847 -0.029706549 -0.022384947 -0.0031755362 0.022637278 0.029521443 0.015477027 -0.022015492
0.02180776 -0.0133058615 0.00021409802 0.030160852 -0.027842823 0.014554832 -0.019084016 -0.024368301
-0.009393744 0.023980182 0.00641229 0.01895512 -0.0302456 -0.025635371 0.028966248 -0.023239853
0.015898272 0.014831837 0.030097537 4.2766333e-05 -0.01799897 -0.011564843 -0.0015093057 -0.01226777
0.010895767 0.0100150565 0.018268963 0.027446747 0.0019306864 0.00079727545 -0.0028421185 0.005157072
-0.017019464 0.0070430236 -0.014639716 -0.024975173 0.013610904 -0.036037702 0.014512606 0.0034862056
0.015079671 -0.030496545 0.02976361 0.014452537 -0.0006566937 -0.0005467626 -0.009875683 -0.02232844
0.023638424 -0.023257177 0.0055360794 0.0003740117 0.009028401 0.013407145 -0.004459828 0.022056505
0.016443465 -0.0006749462 -0.02830103 -0.019715015 -0.035974644 0.0017315745 0.0034834312 0.01728782
0.017740186 -0.019493785 -0.024013178 -0.009422589 0.026575744 -0.0110776825 0.00420944 -0.018429717
0.0018749513 0.00023971872 0.01894921 0.016101407 -0.02202853 -0.00013286204 0.02212295 0.0036829957
-0.008020299 -0.025877513 -0.02788761 -0.020795539 0.0007925411 0.00420228 -0.00723492 -0.027939871
-0.0010233455 0.021177897 -0.015228534 -0.030311277 -0.009185618 0.024647638 -0.035877787 -0.030799782
0.005104203 -0.00936192 -0.009467944 0.015715849 -0.026071824 -0.025371434 0.02106797 -0.030247867
-0.004860477 0.001852386 0.0022754006 -0.0051418203 -0.01182005 -0.016913163 -0.018717863 -0.004780356
-0.010848209 0.02891577 0.0013226531 -0.020685568 -0.025167387 -0.015179632 -0.0028472526 -0.00851164
-0.01813972 -0.015411654 -0.036563236 4.1838735e-05 -0.032992925 0.022680294 0.006360101 0.004334878
-0.029858034 -0.03647007 0.01993829 -0.01536809 -0.029032191 -0.032538857 0.010900646 0.010944402
0.023219667 -0.0026084764 0.016487977 -0.011606009 0.0051775533 -0.027772967 0.011260521 0.009007963
0.0055862926 0.027306702 -0.0012807122 -0.026125824 -0.002532232 -0.0008313527 -0.0080929445 -0.011838153
00000000: d016 d4bc d149 06bb 0bd2 13bd 63d7 bfbc
00000010: e787 1cbc f58e c2bc a61b 59bc e037 69ba
00000020: 24ff bcbc 1ce1 923b 9d89 e6bc 0449 e13c
00000030: cf84 87bb ec3b 6fbc a206 d03c f6cc cc3c
00000040: 7903 59bc 57d6 dbbc e0e8 e4bc d15d 8ebc
00000050: 76ca 99ba d8d0 a43c 70d5 3dbb c2b9 fbbc
00000060: 6240 af3c 3a7a d13c 2dd3 83bc 2828 b23c
00000070: a585 e439 1da9 613c 524c 39bc 4024 9939
00000080: e659 a23c abc3 fdbc 8591 f3bc f880 febb
00000090: 4fcb c6bc 600a f43b 9b61 14bd de34 0dbc
000000a0: 9846 a03b c704 d2bc bd2b b1bc 9b6c d4bc
000000b0: 8ff8 85bc 7c41 243b 4c64 c2bc 2d36 e13b
000000c0: a910 dbbc 0b06 47bc 6687 8abc dc53 c53c
000000d0: 82de b6bc 5bc2 f1bc 6023 e33c df7c b03c
000000e0: 745e d0bc 2019 093c 0c64 603c f8a6 adbc
000000f0: 9c39 82bc b34f 09bd 5974 0abd a88f ef3b
00000100: 2b77 00bd 5767 5c3c fd2b 16bd 96ae c93c
00000110: 08e0 11bd 6001 4e3c 200d d2bc 647a 563c
00000120: 70ce 493c 968f ebbc 0eb4 51bb 3694 abbc
00000130: f589 023c 67d3 36bb 62ac d73c 83f0 e8bc
00000140: 9aaa 2c3b 8a13 e4bc 2473 f8bc 45e3 843c
00000150: af6c b7bc 6a1f 783c 5399 bcbc 0278 dcbc
00000160: 7631 fcbc aa41 76bc 063f ec3c 2c42 24bc
00000170: 7a92 e1bc 9c2a 8d3a cf4f 6ebc a02c cbbb
00000180: a47c cdbc 265b f3bc a360 b7bc a81c 50bb
00000190: d071 b93c f4d6 f13c 5b93 7d3c d559 b4bc
000001a0: 30a6 b23c d400 5abc 807f 6039 e413 f73c
000001b0: a216 e4bc 6477 6e3c 1556 9cbc 08a0 c7bc
000001c0: 38e8 19bc 1672 c43c 301e d23b c547 9b3c
000001d0: 9fc5 f7bc 4501 d2bc a04a ed3c 8161 bebc
000001e0: 183d 823c 3c01 733c 1c8f f63c 0060 3338
000001f0: 9372 93bc 787a 3dbc e5d3 c5ba c2fe 48bc
00000200: 2984 323c 3116 243c cba8 953c 00d8 e03c
00000210: 160f fd3a 4000 513a d642 3abb a8fc a83b
00000220: 676c 8bbc 2ac9 e63b 6bdb 6fbc bc98 ccbc
00000230: 4500 5f3c 459c 13bd 48c6 6d3c d378 643b
00000240: b910 773c e4d3 f9bc d0d2 f33c 55ca 6c3c
00000250: f825 2cba 9e54 0fba 9ecd 21bc 22ea b6bc
00000260: 5ea5 c13c d685 bebc 0068 b53b 0017 c439
00000270: dceb 133c a4a9 5b3c c023 92bb d8af b43c
00000280: 72b4 863c dfee 30ba 90d7 e7bc 6281 a1bc
00000290: 265a 13bd 00f6 e23a 474a 643b 309f 8d3c
000002a0: de53 913c 6eb1 9fbc 49b7 c4bc 3461 1abc
000002b0: 60b5 d93c 2b7f 35bc 58ef 893b ebf9 96bc
000002c0: edc0 f53a 015d 7b39 603b 9b3c 19e7 833c
000002d0: 2d75 b4bc e250 0bb9 303b b53c 6a5e 713b
000002e0: 9267 03bc 14fd d3bc 8f74 e4bc 685b aabc
000002f0: 88c2 4f3a 48b3 893b e812 edbb 28e2 e4bc
00000300: c721 86ba 457d ad3c 1a81 79bc 5b4f f8bc
00000310: 467f 16bc d8e9 c93c 96f4 12bd d34f fcbc
00000320: 2841 a73b bd62 19bc 6f1f 1bbc 86be 803c
00000330: 9494 d5bc c1d7 cfbc bc96 ac3c 60ca f7bc
00000340: a344 9fbb c3cb f23a e31e 153b b77c a8bb
00000350: e2a8 41bc 798d 8abc 3456 99bc 88a4 9cbb
00000360: b0bc 31bc c4e0 ec3c e05c ad3a c874 a9bc
00000370: d62b cebc feb3 78bc f998 3abb 6874 0bbc
00000380: c099 94bc 2981 7cbc 55c3 15bd 007c 2f38
00000390: 9723 07bd 06cc b93c 6568 d03b 980b 8e3b
000003a0: d698 f4bc a461 15bd a055 a33c 71ca 7bbc
000003b0: ebd4 edbc 7747 05bd a098 323c 2650 333c
000003c0: 2c37 be3c f9f2 2abb cb11 873c 2127 3ebc
000003d0: 77a8 a93b 2284 e3bc 0c7e 383c 2396 133c
000003e0: 380d b73b 4eb2 df3c 92dd a7ba d305 d6bc
000003f0: cef3 25bb 23ef 59ba 4598 04bc d0f4 41bc

sequential_1/dense_3/MatMul f4 [2, 16]
0.4275545 0.19852287 -0.74330276 0.50912565 -0.43182847 0.34157985 -0.27830935 0.4209783
-0.3727614 0.15717413 -0.31291306 -0.5422759 0.38478056 0.40988094 -0.41307423 -0.3559907
0.4797812 -0.29028693 0.48836052 -0.029497026 0.3290278 -0.21520753 -0.31251007 0.23183067
-0.37169653 -0.41088137 -0.08818916 -0.009090487 -0.34303567 -0.09528383 -0.021524545 0.373236
00000000: 6ce8 da3e 9449 4b3e 1749 3ebf 0f56 023f
00000010: 9f18 ddbe 8ee3 ae3e 907e 8ebe 788a d73e
00000020: 95da bebe 41f2 203e 2436 a0be 98d2 0abf
00000030: f501 c53e eadb d13e 777e d3be 6a44 b6be
00000040: e2a5 f53e 7da0 94be 640a fa3e bfa3 f1bc
00000050: 5576 a83e 5d5f 5cbe 5201 a0be 0565 6d3e
00000060: 024f bebe 0b5f d2be 859c b4bd 44f0 14bc
00000070: 5fa2 afbe 2b24 c3bd 3e54 b0bc ca18 bf3e
