models/grayscale_mouth_64.tflite (tflite, 232272 bytes, 8 tensors)

sequential/conv2d/BiasAdd/ReadVariableOp f4 [64]
000000 0e 6b 3d bb ef 65 18 3d 3d af c4 3b 7d af 87 bc
       -0.002890292 0.037206586 0.0060023353 -0.016563172
000010 a8 f7 aa bd 30 71 7b bb 15 70 69 3c 1e bf ce bc
       -0.08348018 -0.0038367026 0.014247914 -0.025237616
000020 06 ba 9f 3c ec 18 bc bc 53 bd a6 bd 45 ce ea 3c
       0.019497883 -0.022961102 -0.081415795 0.02866281
000030 8e 3d 2e 3d 11 65 0c 3c ef 99 27 3c 22 f0 9a 3c
       0.042539172 0.008569018 0.010229572 0.018913332
000040 7e 0b 02 3d a0 3c 38 3c 92 1c cb 3c 4a 34 8f bc
       0.03174924 0.011244923 0.024793897 -0.017480988
000050 e0 34 b6 3c 41 ad aa 3c 91 4e ba 3a 9e 17 e2 bc
       0.02224201 0.020834567 0.0014214088 -0.027599152
000060 12 1f d0 3a 80 e3 07 3d 45 3c 8b 3d 9b 17 d7 3a
       0.00158784 0.033175945 0.06798605 0.0016410233
000070 f8 eb 75 bb 9a 71 48 38 d6 22 a7 bb dd 48 24 3d
       -0.0037524682 4.7789516e-05 -0.0051005883 0.04010855
000080 a0 40 9a 3c 66 03 e9 bb c3 f7 b8 3c 13 8b 1b 3c
       0.018829644 -0.007111001 0.02257908 0.009493607
000090 8c 7b 74 3c bd 4d 0a bd ec 03 6b 3c 29 9e 16 bd
       0.014922034 -0.033765543 0.014344197 -0.036771927
0000a0 9a b8 d2 bb 3e 52 54 3c 0f fb 49 3c 70 9b 16 bc
       -0.0064306976 0.012959061 0.012327923 -0.009192333
0000b0 93 d5 bb bc 4b 1d 42 bd 48 35 28 3d 0e 3a d7 bc
       -0.022928989 -0.047391217 0.041066438 -0.0262728
0000c0 24 1c 5d 3d 84 8e cc 3c 6e e5 c2 bc f4 2c 9e 3c
       0.053981915 0.0249703 -0.023791041 0.019308545
0000d0 c2 0a db 3c ec 0f 05 bb 2f 47 6a 3d b2 89 c7 bc
       0.026738528 -0.002030368 0.057196792 -0.02435765
0000e0 6e 64 8b bc f0 06 1e bc 54 80 b4 bb ba 5c 2a bc
       -0.017015662 -0.009645209 -0.005508462 -0.010398084
0000f0 b4 e6 41 3d f3 e4 8e 3c 47 02 f6 bb 50 01 af bc
       0.047339156 0.017443156 -0.0075075957 -0.02136293

sequential/conv2d_1/BiasAdd/ReadVariableOp f4 [32]
000000 d6 37 15 3d 89 04 da bb ed 57 12 bc c1 23 8c ba
       0.036430202 -0.0066533727 -0.008932096 -0.0010691808
000010 0c cf 27 bc 3d 65 4b bd be 36 bc bb d3 ac 8f 3b
       -0.010242235 -0.049657095 -0.0057438305 0.004384616
000020 03 a8 02 3b 23 6d ca bb 26 6e bb 3c 4e c7 08 bb
       0.0019936569 -0.006177561 0.022879671 -0.0020870748
000030 a4 96 21 3b 3c 16 0b bb f9 8d 13 bd 1f 82 63 3c
       0.002465644 -0.002122297 -0.036024068 0.013886004
000040 c0 48 f3 bc 39 db 04 3d 21 55 a2 3b 71 c5 1b bd
       -0.029697776 0.03243563 0.004953996 -0.03803009
000050 ae 1a 65 3d 16 05 2e 3d fb 37 51 3c b2 62 c4 bb
       0.055933647 0.04248532 0.012769694 -0.0059932107
000060 60 e6 a6 bc 2c 64 20 3d 63 98 68 3d e5 2d 0c bc
       -0.020373523 0.03915803 0.056785952 -0.008555864
000070 99 f2 e1 bc 91 3a 2a bb f8 63 40 3c 5f cf 8c bc
       -0.0275815 -0.002597485 0.011742584 -0.017188726

sequential/conv2d/Conv2D f4 [64, 3, 3, 3]
000000 c2 c3 99 bd bb 04 8c bc b7 bc 54 bc 93 2a 09 3d
       -0.07508041 -0.0170921 -0.012984446 0.033487868
000010 f5 86 10 bd 41 f7 86 bd 8f cf dc bb 5c 82 5c bd
       -0.035284955 -0.06590129 -0.00673861 -0.053835258
000020 86 ec 59 3d 7c 11 ad bc 52 49 a8 bd 66 4f 25 bd
       0.053204082 -0.021126501 -0.0821711 -0.040358923
000030 ff ea 75 3d 25 be 39 bd 60 d3 3d 3d 9b e9 68 3a
       0.060038563 -0.04534735 0.04634416 0.00088849076
000040 97 d9 c9 bd 29 18 98 3d 77 f1 54 bc ee 17 c0 3c
       -0.09855955 0.07426483 -0.012997023 0.02344891
000050 80 04 b3 3d 30 e0 58 3d bc c2 fc 3c 07 a1 a3 3d
       0.08741093 0.052948177 0.030854575 0.07989698
000060 07 89 b5 3c bf c9 b1 3d 96 2f 92 3c f8 c6 57 bd
       0.022160066 0.08681058 0.017844956 -0.052679986
000070 a8 93 a0 bd 01 ee be bd b6 a7 66 bc ae 3e 85 bd
       -0.07840663 -0.093227394 -0.014078071 -0.06506096
000080 fd 74 bf 3c b5 b6 73 3d 55 c4 8c 3d a6 cd 19 3c
       0.023371214 0.059500415 0.06873385 0.009387409
000090 07 35 ee bc e6 62 3c bd 4f 5b 8f 3d 07 78 89 3d
       -0.02907802 -0.045992754 0.069998376 0.067123465
0000a0 56 78 69 3d 5e f9 42 3d 50 5f 6d 3c 1c c5 c5 bc
       0.056999527 0.047601096 0.014488056 -0.02414184
0000b0 19 51 ac bd 55 11 46 3c 1b ff d3 bd 1d 41 e3 bd
       -0.08413906 0.012089093 -0.10351392 -0.11096404
0000c0 b6 f3 1f bd 2a 6d 8d 3d 75 b4 7d bd 78 f4 76 3d
       -0.03905078 0.06905587 -0.061939675 0.060291737
0000d0 22 e5 2e 3d 8d 7f 9e 3d be 26 30 bd c1 c3 07 be
       0.042698987 0.07739172 -0.043005697 -0.13258268
0000e0 aa b0 77 bd 3f ea fb 3c 6a 46 4e bd 6e 95 04 be
       -0.060471214 0.030751346 -0.05036012 -0.12947628
0000f0 20 5e dc bd a2 38 56 3d 17 31 d3 bd ad 7b f0 bc
       -0.107601404 0.052300103 -0.103120975 -0.029355848
000100 74 a7 7d 3d 07 d8 4c 3d 21 9e bd 3b cf 30 72 bd
       0.061927274 0.050010707 0.0057866727 -0.05912858
000110 7a 62 a3 3d cc 47 be 3d 5a 43 fc bb 00 2e 26 3d
       0.07977767 0.09291038 -0.0076984586 0.040571213
000120 88 5e 8e 3d 50 7c be 3d 43 12 95 3d 4c 0d a1 3d
       0.06951624 0.093010545 0.07278874 0.07863864
000130 5c c3 53 bd 2e 92 ea 3d 02 1f 1e 3c 7d 0d d9 3c
       -0.05169998 0.11453663 0.0096509475 0.02649569
000140 82 2b 66 3d 17 df a3 3d ff d1 37 3d 0f 5f 4d bd
       0.056193836 0.080015354 0.044878002 -0.050139483
000150 ee 23 bd bc 72 38 a7 bd 33 4d 33 3d 43 04 9d 3d
       -0.023088422 -0.08165063 0.043774795 0.076668285
000160 ed 83 9f 3c d7 99 b5 3d 83 63 45 bc dd 86 8f 3b
       0.019472087 0.08867233 -0.012047651 0.0043800906
000170 24 14 85 3d 1e 8c 39 bd 03 23 86 3d e4 83 e2 bc
       0.06497982 -0.04529964 0.06549647 -0.027650781
000180 9e e4 00 bd e5 5f 8a bd 81 91 44 3d 55 ad 97 3d
       -0.031468026 -0.06756572 0.047990326 0.07406107
000190 35 13 47 3d bd 95 ad bc 5d f3 3d 3d 46 fb 07 3d
       0.0486023 -0.021189565 0.046374667 0.033198617
0001a0 c7 9b b0 3d c2 57 ca 3d fb e8 3c 3d 5c c5 52 bd
       0.08623462 0.0988002 0.046120625 -0.051457748
0001b0 b5 5b 4f 3d 74 b9 99 3c ba 7d 03 3d 3a af 10 3d
       0.050624568 0.018765189 0.032102324 0.03532336
0001c0 2a a9 6d bd bd 57 29 3d 16 7f 24 3d bb 8e 95 3d
       -0.058022656 0.04134344 0.04016026 0.07302614
0001d0 a8 ce be 3d a5 38 c1 bd 0a a1 b5 3a ae 45 09 bd
       0.0931676 -0.09434632 0.0013857197 -0.033513717
0001e0 25 99 98 3d 5b 88 a1 3d 37 32 b6 bd b1 85 5e 3d
       0.07451085 0.07887336 -0.088962965 0.054326717
0001f0 ca af 91 3d 5c 46 6c bd a8 03 ef bc a2 a6 84 bd
       0.07113607 -0.057684287 -0.029176548 -0.06477095
000200 62 4f 68 3d c5 83 37 3d 0e ea 97 3d 23 99 7c 3d
       0.05671633 0.0448034 0.07417689 0.06166948
000210 05 dd bb bd df ae 92 3d 88 7d 0a 3d d0 1d 1b bd
       -0.091730155 0.0716226 0.033811122 -0.03787023
000220 38 fa 8c bd 99 f4 2b bd 6f a3 8f 3c f1 d6 b4 bd
       -0.06883663 -0.041981313 0.017533986 -0.08830059
000230 8f 0e 87 bd 17 ec 7c bc 49 f3 aa bd 75 8e c3 bd
       -0.06594574 -0.015437148 -0.08347184 -0.09548656
000240 23 9e 0e bd 0c 65 87 bd e7 03 31 bd 9e 00 97 bd
       -0.03481878 -0.0661107 -0.043216612 -0.073731646
000250 b5 69 b4 bc fd f1 c3 3d 7a 74 a5 bc cd 9c 9b bd
       -0.022023061 0.0956764 -0.020197142 -0.07598267
000260 12 d3 e7 3c c0 d4 a9 bd a3 de 3b 3d 63 8c bd 3b
       0.028298888 -0.08292532 0.04586662 0.0057845577
000270 d0 3d dd 3c 00 1b 21 3c 91 54 eb 39 d1 cd bf bc
       0.027007014 0.009833097 0.000448857 -0.02341357
000280 36 55 af bd f9 6e b0 bd 53 d7 73 3d 53 9d 98 bd
       -0.085611746 -0.08614916 0.05953152 -0.07451882
000290 95 ba 7a bc b7 73 6c bd 29 b3 da bd 8d 01 00 bd
       -0.015303274 -0.05772754 -0.10678703 -0.03125148
0002a0 04 d0 c8 bd 7c 6a 8d bd 5d 05 98 bb 3e ed 8a 3d
       -0.09805301 -0.06905076 -0.004639311 0.067835316
0002b0 88 8c 28 3d 00 10 b0 bd 9d 46 a1 bd 67 43 25 bd
       0.041149646 -0.08596802 -0.078747965 -0.040347483
0002c0 5e af c1 3d bf 1f c6 3b 5c a9 a0 bb 4b 12 5d bd
       0.09457277 0.006046265 -0.0049030017 -0.053972524
0002d0 b3 75 88 bd 08 13 5f b9 83 a8 4e 3c 32 3a b8 3d
       -0.06663074 -0.00021274027 0.0126134185 0.08995475
0002e0 88 23 4a 3d a1 61 ea 3d bc 99 6c bd c4 0c a1 3d
       0.04935029 0.114444025 -0.0577638 0.07863763
0002f0 16 68 00 3e 31 f6 a8 3d 96 ef e1 3b c7 00 ac 3d
       0.12539706 0.08250082 0.006895016 0.08398586
000300 4f fa 3e 3d e1 0d c3 3d 50 4a 38 bd da 68 c6 bc
       0.04662543 0.095241316 -0.044992745 -0.024219919
000310 9a df a7 3d d2 60 5c 3b f8 62 5e bd 5d 05 7d 3d
       0.081969455 0.0033627045 -0.054293603 0.061772693
000320 c8 d9 48 bd 1a 7d f0 ba 0f e9 89 3d 3a 45 37 3d
       -0.049035817 -0.001834783 0.067339055 0.044743754
000330 84 69 70 3d ed 68 bc 3d bd 3d 9f 3c f2 af f3 bd
       0.058694378 0.091997005 0.019438619 -0.11898793
000340 e3 2d 7c 3d b1 df c8 3c 00 38 96 bd 28 dd 07 bd
       0.0615672 0.024520727 -0.073349 -0.033169895
000350 64 40 f8 bd da ce eb bd a3 35 e5 3c 28 46 ca bc
       -0.121216565 -0.11514063 0.027979678 -0.024691656
000360 44 77 db 3d 42 b5 ab 3d f8 99 9e 3d ea b2 e9 3d
       0.107161075 0.083841816 0.07744211 0.11411078
000370 d8 89 f7 3d f7 aa d0 3d 5b b9 5e 3d 20 95 a2 3a
       0.120868385 0.10188859 0.054375987 0.0012404062
000380 b9 f7 9f 3d 20 6d 91 3d 67 2e f2 bb b7 5a 53 3d
       0.07810921 0.07100892 -0.0073907855 0.051600184
000390 d8 ba 29 3d b8 66 c4 bd b7 f8 4f 3d d8 09 c4 3c
       0.041437954 -0.095899045 0.050774302 0.023930475
0003a0 56 b4 b2 bd 30 f3 b7 3d c7 4f e5 3c 8b 24 e0 bc
       -0.087258026 0.08981931 0.027992142 -0.027361175
0003b0 f0 39 12 bd a3 79 8c bd e5 f0 5a 3d 53 b8 15 3d
       -0.035699785 -0.06859138 0.05345239 0.03655274
0003c0 37 3b 20 3d 8a df a9 bd 00 e6 43 3c 58 7b 83 bd
       0.03911897 -0.0829459 0.011956692 -0.0642001
0003d0 52 7a 05 be d4 4b 51 3c bb 0b d1 bd 2c f3 90 bc
       -0.13034943 0.0127744265 -0.102073155 -0.017694078
0003e0 03 33 85 bd 89 02 b2 3c 3a de 8a bd 36 39 d3 bd
       -0.0650387 0.021729724 -0.067806676 -0.103136465
0003f0 37 5f 7d bc 20 17 b1 3d f4 c8 86 bd 3e f1 8a 3d
       -0.0154645955 0.08646989 -0.065812975 0.067842945

sequential/conv2d_1/Conv2D f4 [32, 3, 3, 64]
000000 ab 96 91 bc 90 21 29 bc ba 02 d9 bd 1e e2 43 bd
       -0.01777204 -0.010322943 -0.10596223 -0.047823064
000010 d7 12 6d bc 62 2d 75 3d 1c 6e 86 bd 6b 33 97 bc
       -0.014469824 0.059857734 -0.065639704 -0.018457135
000020 dd 12 6c 3d c2 17 a6 bc 13 87 be bd 9c 47 67 3d
       0.057635177 -0.020275 -0.09303107 0.056464776
000030 d6 57 3b 3e ca 21 02 3b ab d2 12 bd 66 0f 68 3d
       0.18295226 0.0019856566 -0.03584544 0.05665531
000040 66 1f ea bc 57 29 e2 3d 7b eb 54 3c d4 9e b0 3d
       -0.028579425 0.11043041 0.012995596 0.08624044
000050 4b 25 00 3e b5 51 71 3d 34 ed 9b 3d 6c 56 07 3d
       0.12514226 0.058915813 0.07613602 0.033041403
000060 4a 69 b7 bd 31 aa 2e 3d 6f 11 14 3e 90 02 83 3d
       -0.08955629 0.042642776 0.14459775 0.06396973
000070 57 d5 42 3c 1a 59 bd bd 30 c3 23 bd 08 b6 73 3d
       0.0118916845 -0.092455104 -0.039981067 0.05949977
000080 44 e2 50 3d 08 5b 4f bd df eb 51 3d ea 76 aa 3b
       0.050997034 -0.050623924 0.051250335 0.005202164
000090 ca 37 8c 3c d8 ae 99 3d 6f 5f 0a 3d 1c dc 76 3d
       0.017116446 0.07504052 0.03378242 0.060268506
0000a0 4b 69 d8 3c bb 56 26 3d b7 70 9d 3c 65 bb f8 3b
       0.026417395 0.040610056 0.019218786 0.0075906985
0000b0 44 5f a9 bd a4 e1 e9 bc b6 06 fb 3d ab 07 9b 3c
       -0.082701236 -0.028549977 0.122571394 0.018924555
0000c0 ec c8 11 3e ea 85 66 bd 0f 4f a4 bd da 13 81 3d
       0.14236802 -0.056280054 -0.08022892 0.063026145
0000d0 6d ac 1d 3d 3a 0b e6 3a 3a 60 f5 3d 91 cf 9b bd
       0.038494516 0.0017550953 0.119812444 -0.076079495
0000e0 1f ac 31 bd 31 c7 0b bc 50 48 a6 bb d2 9c 1e bc
       -0.043377038 -0.008531378 -0.0050745383 -0.009680944
0000f0 25 da f3 3d 34 d0 21 3d ee 15 a3 bd 37 d5 99 bc
       0.11906842 0.0395052 -0.07963167 -0.018778427
000100 f3 c9 82 3d a2 f0 aa 3d 0b e3 ae bd de 07 9a bd
       0.06386175 0.08346678 -0.08539399 -0.07521032
000110 1c 9f e5 bc 8d 9d a5 3d 57 ff 15 3d 02 8f 95 3d
       -0.02802997 0.08086691 0.036620464 0.07302667
000120 fa a9 5c bc ad c4 9b bd 36 b8 1f 3d 7d 77 34 3c
       -0.01346826 -0.07605872 0.038994037 0.011014816
000130 3f 76 09 3e 9c 71 8f 3c 97 d2 09 be 92 d3 47 3e
       0.13424014 0.017510228 -0.1345924 0.19514301
000140 ab 47 38 3c b8 78 08 3e 9a af b8 bd bd cc 4d bc
       0.011247556 0.133273 -0.09017868 -0.01256102
000150 a7 f2 fe 3d 4f 69 06 3d fd 24 8c 3d eb 24 a2 bd
       0.12448626 0.032815274 0.068429925 -0.07917198
000160 61 25 8d 3d c3 bf 7b 3e d6 b8 07 3e a0 c9 6f 3d
       0.06891895 0.2458487 0.13254103 0.058541894
000170 69 d5 e1 3d 17 8a a5 bd 3d 11 9e 3d 36 89 d0 3d
       0.11027033 -0.08082979 0.07718132 0.10182421
000180 ef f0 d0 3c 71 29 36 3d 07 fd 67 3e a7 9b 21 bd
       0.025505511 0.044473115 0.22655116 -0.039455082
000190 38 ea fe bc d4 69 a4 3c ab bf 22 3e 1b c7 87 3b
       -0.031117544 0.020069994 0.15893428 0.0041436083
0001a0 2d a4 6d 3d 1a 13 59 bd 4c ec 79 bb ee be 49 3d
       0.0580179 -0.052996732 -0.0038135229 0.04925435
0001b0 e6 4e 17 3c aa 3d 93 bd 7e 4a f1 3d c7 84 43 3d
       0.009235119 -0.07189496 0.117817864 0.04773405
0001c0 89 15 87 3e 8d fc 76 3d 57 0a 15 bd 94 5b fe 3d
       0.26383618 0.060299445 -0.036386814 0.12419811
0001d0 a1 b8 ba bb 18 72 32 3d ea 05 6f 3e 0e b9 7b 3d
       -0.005698279 0.04356584 0.233421 0.06145578
0001e0 6b ca 69 bc 01 bc 0e bd ab 51 a5 3d b2 49 00 bd
       -0.014269452 -0.034847263 0.080722176 -0.03132028
0001f0 43 31 8b 3d 7f ec 1f 3e 8c d8 4b 3d 0a 7f 99 bd
       0.06796505 0.1561756 0.049767062 -0.07494934
000200 2c 33 17 bd b0 4a fd 3d 8a c2 90 3b eb 36 c4 bc
       -0.036914036 0.12367761 0.004417722 -0.023951968
000210 b4 9a fd 3c 00 8a 55 39 b5 54 88 3d 38 3f 54 bc
       0.030957557 0.00020364672 0.066567816 -0.012954526
000220 46 39 7c 3d a4 68 4b 3d fe 9d 3d 3a 5b 55 f7 bc
       0.061578058 0.04966034 0.00072333205 -0.030192068
000230 62 da b1 3d 34 88 ef 3c 46 54 2a bc 85 06 0a 3e
       0.08684231 0.029239751 -0.010396069 0.1347905
000240 34 35 d3 3b 16 fc 5a 3e 0f 6d b0 bd 76 1d ae bd
       0.0064455513 0.21385226 -0.08614551 -0.08501713
000250 84 84 5c 3e 1a ef 4a 3e 1b 70 13 3e 12 da eb 3b
       0.21534926 0.19817773 0.14398234 0.007197627
000260 72 f2 96 bd 92 24 48 3e de a6 bf 3c 13 9f 99 bc
       -0.073704615 0.195452 0.023394998 -0.01875261
000270 4b 02 0b 3e a0 39 38 3d 39 70 87 3d a0 d9 d6 3d
       0.13575093 0.04497683 0.06613202 0.104907274
000280 00 9b 9f 3d 45 71 5b bd 9c 6f ff 3d 62 0e 37 bd
       0.07793236 -0.05357482 0.1247246 -0.04469145
000290 86 47 ec 3d 37 d5 1c 3d 41 1d 8e 3e 4e 9f ce bb
       0.115370795 0.038289275 0.27756694 -0.0063056117
0002a0 ff 08 19 bd 31 4b 99 3d 9d 94 94 bd 34 e9 b2 3b
       -0.037362095 0.07485045 -0.07254908 0.005459929
0002b0 27 2b 4d bd a5 26 0b 3d 64 18 30 3e fe f0 8c 3b
       -0.05008998 0.0339724 0.17196804 0.0043011894
0002c0 c5 97 90 3e a8 0a a0 3b 89 a9 83 3d 58 90 e4 3d
       0.2824079 0.004884083 0.06428821 0.11160344
0002d0 a7 00 77 3d 4a 57 14 3c 42 b2 26 3e a5 ba 96 bd
       0.060303356 0.009054014 0.16278937 -0.07359818
0002e0 83 23 5a bc a0 e3 56 3d 40 ec fc bc b2 27 83 bd
       -0.013314131 0.052463174 -0.030874372 -0.06404056
0002f0 d0 56 54 3d 1a fc 7a 3e 04 6c 55 bd df e0 87 3c
       0.051840603 0.24510232 -0.052104965 0.01658672
000300 63 9c c5 bd e1 17 fb 3c 37 b5 b8 bd 34 86 b0 bd
       -0.09648969 0.030651035 -0.09018939 -0.08619347
000310 f6 7b 16 3d 76 d4 bd bc 8f 5d ae bd f6 8f ad bd
       0.036739312 -0.023172598 -0.08513939 -0.08474724
000320 60 59 27 3d d4 10 b5 bd 32 1d 87 bd 8f 3d d0 bc
       0.04085672 -0.088411 -0.065973654 -0.025419978
000330 f6 83 07 3e 62 7f 3c bd 92 0f 59 bd 44 23 fb bd
       0.13233933 -0.04601992 -0.052993365 -0.12262586
000340 c9 6b 3b bd 54 f5 86 bd 58 34 0b 3d 64 30 62 bd
       -0.04575709 -0.065897614 0.033985466 -0.05522193
000350 fb 09 fc bc d7 b3 fc bd 48 92 a5 bd a2 34 9b bc
       -0.030766478 -0.12338989 -0.080845416 -0.018945996
000360 8b 23 fb bb b9 d5 03 bd 29 dd eb 3b 7e f8 b6 39
       -0.007664149 -0.032186244 0.007197995 0.00034898886
000370 28 22 6c bd ee fd 4a bd 2b f5 8b 3d db f0 15 3e
       -0.05764976 -0.049558572 0.068338715 0.1464266
000380 45 6a b4 bd 03 3f b0 bc 8a 32 9c 3d 6d 18 1c 3c
       -0.08809332 -0.021514421 0.07626827 0.009527308
000390 e4 6f b1 bd bb 86 ae bd 1b 81 02 bd 6f 6a 0e 3d
       -0.086639196 -0.085217915 -0.031861406 0.03476947
0003a0 aa 13 86 bd aa 88 73 bd e6 44 24 3d 5e e9 a1 bd
       -0.06546719 -0.059456505 0.04010477 -0.079058394
0003b0 f0 e7 09 3d 71 36 17 3d b0 26 d6 3d 98 51 b0 3c
       0.03366846 0.036917154 0.10456598 0.021523282
0003c0 85 14 00 3e fc 6c db 3d 64 a5 aa bc 11 8b 13 bc
       0.12507828 0.107141465 -0.020830818 -0.009005324
0003d0 17 ee 0e 3d 31 eb 31 bc f9 1a 25 3e f8 46 b2 bd
       0.03489503 -0.010859297 0.1612357 -0.087049425
0003e0 b3 58 13 bd 82 13 48 3d 79 20 3c 3d f8 b3 b2 3d
       -0.035973262 0.04884673 0.045929406 0.087257326
0003f0 d0 72 ba bb ad a4 02 3b a3 a6 9c bd b9 a9 d3 bd
       -0.0056899562 0.001993458 -0.07648971 -0.103351064

sequential/dense/BiasAdd/ReadVariableOp f4 [32]
000000 7c 35 fe bc e2 28 00 bd 58 30 1d bd ea cd 0b bd
       -0.031031363 -0.03128899 -0.038376182 -0.03413192
000010 57 7d e6 bb 57 4d 2e bd 65 f2 ed bc f4 85 5d 3d
       -0.0070339846 -0.042554226 -0.029046247 0.054082826
000020 17 76 1e bd ed 48 48 3d bf df 49 bd 67 0c cc bb
       -0.038686838 0.048897672 -0.049285647 -0.0062270644
000030 a8 23 18 3b 90 52 71 bd 4a 65 e7 bb 9d 98 10 bc
       0.0023214612 -0.05891663 -0.007061635 -0.008825448
000040 1d cb 9d bb b6 ac 4e 3d ea fd 3d 3d cf 74 5a 3d
       -0.0048154728 0.05045768 0.04638473 0.053334054
000050 d3 5b 35 3d 9b b3 c4 bb 83 eb 8b bb 64 4f d6 bc
       0.044277024 -0.006002856 -0.0042700185 -0.026160903
000060 29 0a 10 bd ad c6 c4 bb 46 96 b3 bb 7a 0b 40 3d
       -0.03516594 -0.0060051293 -0.0054805605 0.046885945
000070 f5 8e 41 3d 79 b4 93 bb 46 ac 25 bd 71 c0 2d 3d
       0.047255475 -0.004507598 -0.040447496 0.042419855

sequential/dense_1/BiasAdd/ReadVariableOp f4 [2]
000000 66 dc 1b 3d 66 dc 1b bd
       0.038051985 -0.038051985

sequential/dense/MatMul f4 [32, 1152]
000000 0b 0a c0 bc 72 c7 ed bb 4d 48 7a bd 55 e6 49 bd
       -0.023442289 -0.0072564417 -0.061104108 -0.049291927
000010 de d2 86 bd 29 53 c1 bc c8 47 f2 3c 8a 97 12 bd
       -0.065831885 -0.023599224 0.029575244 -0.03578905
000020 4d b5 16 bd 1d 6e 43 bb d1 45 6e 3c 32 53 49 bd
       -0.036793996 -0.0029820271 0.014543013 -0.049151607
000030 25 aa 35 bd 51 68 67 3d 4c 1f 09 3d 36 32 1b 3c
       -0.044351716 0.05649597 0.033477113 0.00947242
000040 08 7d c2 3d f1 8c f3 bc cc 01 31 bd e7 91 58 bc
       0.09496504 -0.029730292 -0.043214604 -0.01321838
000050 5c db 89 bc d9 48 51 3d 29 e2 93 3d d6 a4 f7 bc
       -0.016828232 0.051094864 0.07220871 -0.030229967
000060 8b 5f 92 3d b6 2a 4e bd a3 b1 c7 bd 00 fe 12 ba
       0.071471296 -0.0503337 -0.097506784 -0.0005607307
000070 32 e9 c9 bb bc 32 ab bc cd bb 78 bd 0b fd 3d bd
       -0.0061618323 -0.020898215 -0.060725976 -0.0463839
000080 e9 15 af 3c f2 55 f3 bc 49 a1 d7 3c 19 51 eb bc
       0.021372752 -0.029704068 0.026322024 -0.028725194
000090 ac 24 21 3c 87 60 c1 3c 86 97 5e 3d a1 7d 21 3d
       0.009835403 0.023605598 0.054343723 0.03942645
0000a0 b1 d5 84 bd 56 a2 b7 3c 1c ff 71 bc 2f 27 8d 3d
       -0.06486071 0.022416275 -0.0147702955 0.06892239
0000b0 20 9f 50 bd 8c b2 ab 3d c9 83 8e 3d d2 f8 2b bd
       -0.050933003 0.083836645 0.0695873 -0.04198534
0000c0 04 05 96 3d fa a8 81 bd 5a b5 3c bd a1 84 89 3d
       0.073251754 -0.06331058 -0.046071388 0.0671475
0000d0 bc 3b b2 bc 01 88 00 3c 95 17 85 bb 86 33 ed bc
       -0.021757 0.007844926 -0.004061649 -0.028955232
0000e0 f2 9e d1 3d 2b 3d d8 3c d3 4a 90 3c 44 a4 55 bd
       0.102353945 0.026396355 0.017613804 -0.05215861
0000f0 5d db 45 bd c8 08 da 3c f7 d0 4e bd 9e a3 2a 3d
       -0.048304904 0.026615515 -0.050492253 0.041659944
000100 76 d8 13 3e 0b 75 68 3d 41 65 88 bd b2 80 06 3e
       0.14438042 0.056752246 -0.06659938 0.13135031
000110 6e b7 d4 3d 29 3f ae 3c 36 a4 4e bd ba 01 b2 3c
       0.10386549 0.021270351 -0.050449573 0.021729339
000120 70 66 16 bc cd 2d 0c 3c ba 2a 36 bd d0 6d 91 3a
       -0.009179696 0.008555842 -0.04447434 0.0011095349
000130 b7 55 ef bc fc 90 33 3c d0 ed 7b bd 8b 48 6a bd
       -0.029215677 0.01095986 -0.061506093 -0.05719809
000140 89 65 93 3d f3 f8 96 ba 73 1f 82 3a d2 64 b7 bc
       0.07197101 -0.0011518284 0.0009927585 -0.022386942
000150 ea 96 bb 3c 16 f2 40 bd 0f 03 f0 3c 75 12 85 bd
       0.02289911 -0.04710587 0.029298333 -0.06497661
000160 d1 7a 28 3c 8d de 67 3d d8 34 1a 3d a3 a4 09 bd
       0.010283188 0.056608725 0.037648052 -0.033604275
000170 0c ce a0 bc 84 f5 ae 3d cb d8 52 3d 32 d1 a2 bb
       -0.0196295 0.08542922 0.05147628 -0.0049687857
000180 c6 c0 d0 3c 18 e4 8e 3d 93 91 1a bc cf 60 8a 3d
       0.025482547 0.06977099 -0.009434122 0.06756746
000190 28 7c ae 3d 19 0b 83 bd ed 63 86 bd 4e 2c 3e 3d
       0.08519775 -0.06398601 -0.06562028 0.04642897
0001a0 40 81 56 3b 88 5f 00 3c f4 ee 20 3c d9 6d 3e 3d
       0.0032730848 0.007835276 0.009822596 0.046491478
0001b0 3f e7 fb bd 11 6d 8c 3d 31 5e bd bd e7 32 d2 bb
       -0.12299966 0.0685674 -0.09246481 -0.0064147594
0001c0 ab ae 10 ba 6e 48 ed bc 58 b1 30 3d e3 d8 05 bd
       -0.00055191916 -0.028965201 0.04313788 -0.032677542
0001d0 58 4a cc bc aa 2a 98 3c 4e f1 16 bd 04 3e 9b 3c
       -0.024937794 0.018575031 -0.03685122 0.01895047
0001e0 21 b4 14 3d fe e0 25 3c 9e dc 2d 3d 00 aa 41 3c
       0.036304597 0.010124443 0.042446725 0.011820316
0001f0 ec b7 38 bc ca 7e 16 bd 9b c8 64 3d 70 ae cd 3d
       -0.011274319 -0.03674201 0.055855375 0.10043037
000200 54 f6 74 3d 10 77 b5 3c 7e 4c b7 3a f7 e7 2a bc
       0.05980523 0.0221515 0.0013984588 -0.010431281
000210 41 29 18 3d 75 ca 52 bd 30 d9 e3 bc 07 f4 7e bd
       0.037148718 -0.05146261 -0.027813524 -0.06224444
000220 83 ca 14 bd fe 55 08 3d 3d bd a6 bd 3d 72 5a bd
       -0.036325943 0.033285134 -0.08141563 -0.053331602
000230 a9 7b 9b bd 62 94 a8 b8 50 96 3a bd dc 0e 8e 3d
       -0.07591946 -8.038503e-05 -0.045553505 0.06936428
000240 87 62 9c 3d 1e ea 98 3c 3e 1f ba bb cd 1a 74 ba
       0.0763598 0.018666323 -0.005679994 -0.0009311855
000250 80 c5 1b 3c fb 9e 1e bc be 12 7c bd 18 27 b2 3c
       0.009507537 -0.009681459 -0.06154131 0.021747157
000260 40 a4 42 3d 32 02 c3 bd 4b 3a aa bd d2 2f 35 3d
       0.047519922 -0.09521903 -0.083119 0.044235058
000270 36 91 af 3c 16 a2 08 bd 39 1f af bd 68 e3 15 3d
       0.021431547 -0.033357702 -0.08550877 0.036593825
000280 d4 c9 a5 bd 27 2d f1 bc ca dd ad b9 5b 6e 5c 3d
       -0.08095136 -0.029440476 -0.00033162377 0.05381618
000290 ac b5 9f ba 36 95 61 bd d5 a2 0e bd e1 11 83 3d
       -0.001218488 -0.05507394 -0.034823257 0.063998945
0002a0 20 ea c2 39 e9 49 83 bd cf 90 b0 3c cf c1 04 bd
       0.00037177 -0.064105816 0.021553425 -0.032411393
0002b0 40 6a 9d 3d ba 98 0a 3b 68 4e 0a bd bc 45 12 3d
       0.07686281 0.002114816 -0.03376618 0.035711035
0002c0 ac fc b0 3d db 58 5d bd d9 c0 8c 3d e5 55 ec 3c
       0.08641943 -0.054039817 0.0687272 0.028849551
0002d0 e6 11 44 bd 1d 8f bd 3c e0 17 ae 3c 12 c0 30 bd
       -0.04786863 0.02313953 0.021251619 -0.043151923
0002e0 02 e1 77 3d 50 07 af bd 46 d3 7f bc 00 d3 d4 bc
       0.06051732 -0.085463166 -0.015614336 -0.025979519
0002f0 52 92 49 3c 52 8a 28 bd e2 8e 07 bd e4 3b b1 3d
       0.012302952 -0.041147538 -0.033095248 0.08654001
000300 4a 5a df bc 69 0e 48 3c d6 19 d6 bc 2a 38 c9 3c
       -0.027264733 0.012210467 -0.026135366 0.024562914
000310 9d 52 ef 3d 7a 1b 90 bd eb 28 58 bd b7 5f 62 bd
       0.11685679 -0.07036491 -0.052773397 -0.055267062
000320 96 52 95 3d e9 2b ae 3b 85 85 16 bd 94 b1 f9 3b
       0.07291143 0.005315293 -0.036748428 0.007620046
000330 0b 2b f9 3c 8e 1c 63 bc 2b 6a 18 bd b4 c9 c3 3c
       0.030416032 -0.013861788 -0.037210625 0.02389989
000340 12 fc 2f 3d 43 88 8d 3d 06 ac ee 3c 03 9c ae 3d
       0.042965002 0.069107555 0.029134762 0.085258506
000350 d8 32 ad bd 2c 06 19 bd 41 81 94 3d 9c e0 be 3c
       -0.08456963 -0.0373594 0.07251216 0.023300461
000360 f4 ec 96 3d 1d 86 96 bd f5 3b 99 bd 12 1b 4e 3d
       0.07369414 -0.07349799 -0.07482139 0.050318785
000370 38 ed 45 3d a0 4c 56 3d 7f fe 55 3c c6 50 d5 3a
       0.048321933 0.05231917 0.013061165 0.0016274683
000380 82 5f 8f bc fe 74 66 3d ed f3 93 bc c1 3e b1 3c
       -0.017501596 0.056263916 -0.018060649 0.021636369
000390 3d 44 74 3c 78 44 5c 3d 06 1e a3 bc d1 4e 17 3d
       0.014908847 0.053776234 -0.019911777 0.0369404
0003a0 4a d1 4a 3c 58 84 e9 bb 6f 97 37 3c a9 10 d1 bc
       0.012379 -0.0071263723 0.011205538 -0.02552064
0003b0 dd 9d 25 bd f3 07 27 bd 3f 77 58 bd 8f f1 08 bd
       -0.040433753 -0.040779065 -0.052848097 -0.033433493
0003c0 fc 17 77 bd dc 41 e4 3c b3 42 fa 3a bc 68 92 bb
       -0.060325608 0.027863435 0.0019093364 -0.0044680517
0003d0 67 67 13 3d 19 cd 61 bd ca 8a 80 3a de 78 1e 3d
       0.035987284 -0.055127237 0.0009806987 0.038689487
0003e0 a2 68 4f 3d b7 10 f6 3c 17 bd 98 bc b6 73 85 bc
       0.050636895 0.030037267 -0.018644853 -0.016290527
0003f0 b6 89 bd 3c c2 bf e3 3c b1 1e 7d 3c 5e ac 72 3d
       0.023136955 0.027801398 0.015449212 0.059246413

sequential/dense_1/MatMul f4 [2, 32]
000000 ee c7 09 be ab 11 57 bd f1 9f c4 be 2c 4f e7 be
       -0.13455173 -0.052507084 -0.38403276 -0.4517759
000010 96 7e e9 3c 5a 90 43 bd a5 3e a3 be 93 10 5b be
       0.028502744 -0.047745086 -0.3188373 -0.21393041
000020 d6 99 31 be 3d 1f 9e 3e cb 6f ca be 65 b2 93 3e
       -0.1734384 0.30883208 -0.39538416 0.28847042
000030 09 eb a8 3e 33 f0 b8 be fa 13 93 bd 4b 4d b6 be
       0.32991818 -0.36120757 -0.071815446 -0.35605845
000040 7b 30 ce be 8e ed 31 3e 10 a6 e5 3e ce 13 09 be
       -0.40271363 0.17375776 0.44853258 -0.13386461
000050 f4 bf de 3e 24 b6 a0 3e 2c d9 71 be 65 82 6f be
       0.43505824 0.31388962 -0.23618001 -0.23389585
000060 29 77 59 be 35 58 87 3d 8f e9 f4 bd 1f 7c 0e 3e
       -0.21236862 0.06608621 -0.1195861 0.13914536
000070 9d ad c7 3e 65 cf bf be e4 f5 25 be 2c 4b 8c 3e
       0.38999644 -0.37462917 -0.16207081 0.27401102
000080 ef bf c1 3e e9 43 ee 3e 59 62 85 bd d6 33 95 3e
       0.37841746 0.46536186 -0.06512899 0.2914111
000090 94 9a ef 3d e7 67 0a 3e b6 49 73 3e 81 25 ea be
       0.11699405 0.13516198 0.23758587 -0.45731738
0000a0 10 ef c3 3d 88 ff 4c 3d 10 b2 8b be 48 a1 7d 3e
       0.09567082 0.05004838 -0.27284288 0.24768555
0000b0 be b4 4a 3e e0 a8 85 be 9f 80 89 3e ee 0e 2c bb
       0.1979551 -0.26105404 0.26855943 -0.0026254016
0000c0 4f 04 50 3e 7b 41 b4 bd 49 6c 55 be 7b 74 c9 be
       0.20314144 -0.08801552 -0.20842089 -0.3934668
0000d0 93 ef ca be 50 c2 51 3e 2e bd 2d be 80 fd 8b 3e
       -0.39635906 0.2048428 -0.16966698 0.27341843
0000e0 f0 ed 7a 3e b2 df 66 be ba 25 8c be 47 56 f8 bd
       0.24504828 -0.2254627 -0.27372533 -0.12125831
0000f0 c5 61 a7 be c4 ce c2 be f0 1e d0 3c 03 9d 7b be
       -0.3269178 -0.38048375 0.025405377 -0.24571614
