models/grayscale_eye_64.tflite (tflite, 376272 bytes, 8 tensors)

sequential/conv2d/BiasAdd/ReadVariableOp f4 [32]
000000 3f cb 2e bd 3c 57 2f bc 98 89 da 3c 49 fe 8a bc
       -0.0426743 -0.010701951 0.026676938 -0.016966956
000010 75 68 80 bd 23 bf 14 3d d0 89 58 3d 8a e8 a3 bd
       -0.062699236 0.036315095 0.052865803 -0.08003338
000020 52 bf 50 3c 82 db a7 3c bc 99 97 3c 90 05 32 bd
       0.012740927 0.020490412 0.018505923 -0.043462336
000030 18 af 35 bc 5b ae c2 3c e4 c4 83 3c a7 e4 78 bb
       -0.011089109 0.02376478 0.016085096 -0.0037978084
000040 07 9d 9f ba d3 84 6b 3d 8a 2c cc bc 01 60 80 3c
       -0.0012177535 0.057499718 -0.024923582 0.015670778
000050 6e 70 00 3d 42 c9 31 3b 74 8e 7c 3d 7d bc 2d 3d
       0.03135722 0.0027128016 0.06165929 0.042416085
000060 e4 2d 7f bc 86 1e 9f b9 18 0a 52 bd 08 38 15 3d
       -0.015574906 -0.00030349585 -0.051279157 0.03643039
000070 72 e3 64 3d c5 64 0b bd 88 9e b9 bd 42 54 ce 3d
       0.05588097 -0.03403165 -0.090634406 0.10074665

sequential/conv2d_1/BiasAdd/ReadVariableOp f4 [64]
000000 d8 3d b8 ba c7 90 3f 3c 07 7d 20 bb 61 74 1f 3d
       -0.0014056517 0.011692232 -0.0024488585 0.038929347
000010 8f a8 79 3c 55 62 7c bb b0 b8 f5 3c b2 60 94 3c
       0.015237941 -0.003851076 0.029995292 0.018112514
000020 43 d9 77 3d 8a a7 88 3c 6e 86 1b bb 67 21 7e 3d
       0.06050993 0.016681451 -0.002373125 0.062043574
000030 77 c3 7a 3c c0 79 94 3c cb f5 d0 ba 31 70 76 3d
       0.0153053915 0.018124461 -0.0015942393 0.060165588
000040 8a 14 9d 3c 38 09 fa 3b aa fb 78 3c 12 12 1b 3d
       0.019174833 0.0076304935 0.01519672 0.03785903
000050 4b 4f 05 3c f8 f4 03 3d c1 2a 14 bc 13 63 22 3d
       0.008136581 0.032216042 -0.009043396 0.039645266
000060 28 e0 57 3c dd 0c b6 3c 1c 60 1a 3d e3 81 ed 3c
       0.013176002 0.02222293 0.037689313 0.028992599
000070 42 51 02 bc df fe bd 3c e1 6f 9b 3c 0f 25 aa 3c
       -0.007953944 0.023192821 0.018974246 0.020769624
000080 b1 20 c7 bc 26 7c 2c bc aa 12 16 bc 39 b7 00 3d
       -0.02430758 -0.010527646 -0.009159723 0.031424735
000090 56 1a 73 3d 86 5b 08 bc bb 65 d1 bc 8f 8a f4 3b
       0.059351288 -0.008322602 -0.025561204 0.0074628065
0000a0 34 9d 17 bc 9a 37 05 3d a2 2b 46 3c ad ee 15 bc
       -0.009253789 0.03252373 0.012095364 -0.009151143
0000b0 a8 3b 26 bc a1 2f 2e bc 1a fd 85 3c 1e 9e aa ba
       -0.010146059 -0.010631473 0.01635604 -0.0013017093
0000c0 76 c9 e2 3b 41 63 82 3b e7 35 70 3c d2 45 60 3c
       0.0069209887 0.003979117 0.014661289 0.013688521
0000d0 18 f6 b4 3c 36 ce 95 3c b8 fc 85 39 29 55 0c 3c
       0.022090003 0.018286806 0.00025556027 0.008565226
0000e0 5f b1 2e bc 9a b7 9d 3d 68 80 aa 3c 8e 0d 60 3d
       -0.010662406 0.07701035 0.020813182 0.054700427
0000f0 b4 4f a4 bb 3d af 28 3d 9f b1 a0 3c 57 7d d4 3d
       -0.005014384 0.041182745 0.019615946 0.10375469

sequential/conv2d/Conv2D f4 [32, 3, 3, 3]
000000 2d 2e b5 3d 45 dc 4a bd ab eb 5e 3d d3 91 a5 bd
       0.08846698 -0.04952647 0.05442397 -0.080844544
000010 99 03 3f bd f2 12 0b bd 27 a6 81 3d 1c ae 40 bc
       -0.04663429 -0.033953615 0.06330519 -0.011760261
000020 64 52 01 3e 17 45 9b 3d bf 1d 04 3e 91 47 05 3e
       0.12629086 0.07581537 0.12901972 0.13015582
000030 c8 e5 4b bd 16 d4 07 3d 5f 50 94 3d 68 72 b2 bd
       -0.049779683 0.033161245 0.07241892 -0.087132275
000040 54 86 15 3e bf f0 09 bd 72 91 3c bd 38 bf a8 bd
       0.14602023 -0.03367686 -0.046037145 -0.08239597
000050 82 11 a2 3d e2 d6 33 3c 71 bf 98 bb c9 3b 17 ba
       0.079134956 0.010976525 -0.0046614935 -0.00057691016
000060 54 80 2f 3c 34 6c d0 3d 8d 3c 0e 3e 79 49 3e 3d
       0.010711748 0.10176888 0.13890286 0.046456788
000070 e6 f0 07 be 05 ca 2a bc 91 77 9b bc cb 85 fb bd
       -0.13275489 -0.010424142 -0.018977912 -0.12281378
000080 61 35 06 3d c0 e0 c9 3c 2f 84 b7 3d 4d 56 7a bb
       0.03276575 0.024643302 0.08960759 -0.0038198412
000090 2c a9 03 be cf 78 38 bd 54 f7 fe 3c b6 cc e9 bb
       -0.12857503 -0.045037087 0.031123795 -0.007134999
0000a0 50 d5 fe 3c a5 39 63 3d 91 91 04 be f9 29 3c bd
       0.031107575 0.055474896 -0.12946154 -0.045938466
0000b0 33 f0 f8 bd 63 f3 71 bc e4 34 c6 bd 90 10 80 bd
       -0.12155189 -0.014767501 -0.09678057 -0.06253159
0000c0 e8 8c 0e be 4d 5b 8d 3d 0b 20 0b be 25 5a a7 3d
       -0.13920939 0.0690218 -0.13586442 0.081714906
0000d0 08 83 51 3d 55 c6 dd bd 95 8c cb bb 46 de 1d be
       0.05115035 -0.108288445 -0.006211827 -0.15416822
0000e0 b2 de a9 bd 41 26 f7 bd 48 13 a2 3c ac 73 0f be
       -0.08294429 -0.12067843 0.019784585 -0.14008969
0000f0 68 04 32 bd 07 86 f4 bb f7 3e c5 3d 69 27 05 3d
       -0.043461233 -0.0074622664 0.0963115 0.032508288
000100 c1 c8 8a bd ce b3 44 3c 78 a7 6e 3c 9d 55 02 be
       -0.06776572 0.012005759 0.014566295 -0.12727971
000110 df dd e4 bc e7 98 64 3d 69 ac 0b bd 87 ef 49 3d
       -0.027937828 0.05580988 -0.03409997 0.049300697
000120 d7 d1 1c 3e c8 1a 95 3b dc bb 30 3d a6 33 12 3e
       0.15314423 0.0045503117 0.043147907 0.14277515
000130 11 60 02 3e 4b ee c3 3c 80 9c 00 3e 85 7e 7d bd
       0.12731959 0.023917338 0.125597 -0.061888237
000140 20 7b e7 bc cd 10 30 be b2 d4 d8 bc 53 95 10 3c
       -0.028256953 -0.17193909 -0.026468609 0.008824664
000150 75 70 c8 bd 85 d6 d9 3d 71 b3 9f bd 00 a1 02 3e
       -0.097870745 0.106366195 -0.077978976 0.12756729
000160 b0 1d 81 3d 99 75 01 3c c5 7f fc bd 0a 98 d6 bc
       0.063044906 0.007901573 -0.123290576 -0.026195545
000170 52 d5 51 ba c3 17 d4 3d bd 82 8e bd 5b d9 05 bc
       -0.00080045045 0.10356095 -0.0695853 -0.008169497
000180 59 a5 a4 bd 07 76 00 3e 58 de f3 3c 6a b4 12 3d
       -0.0803935 0.12545024 0.029769108 0.035816588
000190 ea d7 00 be 75 1f 06 be 15 d0 85 bd c5 8b 17 bd
       -0.12582365 -0.13097937 -0.06533829 -0.03699853
0001a0 69 27 b5 bd 73 89 cd bd 32 b9 26 bd 48 d0 24 bd
       -0.088454075 -0.10035982 -0.04070396 -0.040237695
0001b0 bc 35 f6 bd 1b 89 12 be 62 aa f3 3d f4 87 ef 3d
       -0.12021968 -0.14310114 0.11897732 0.11695853
0001c0 02 4f a3 3c 2c a1 a5 3d 1f e3 a7 bc f7 1f d7 3c
       0.019935135 0.08087382 -0.020494042 0.02626036
0001d0 15 4d 97 3c c7 82 21 bd df 2e 05 bd 97 da df 3d
       0.018469373 -0.03943136 -0.032515403 0.109303646
0001e0 7a d7 a9 bd 32 53 0e 3d b8 6c bc 3d 47 1a e8 3d
       -0.08293052 0.03474731 0.09200424 0.11333137
0001f0 3d 37 f5 3d 15 c6 12 3e ab 02 46 bd 5a 6b ea 3c
       0.119734265 0.14333375 -0.048342388 0.028615642
000200 5b d4 da bc 3e fd ff 3d 6c 87 09 3e 6a e3 b2 3d
       -0.026712587 0.12499474 0.13430566 0.08734782
000210 7d 5f d9 3d b0 0d 02 bd 81 30 d5 3d 0c 96 3a 3d
       0.10613916 -0.031751335 0.10409642 0.045553252
000220 d3 93 56 bd 9f 3f 18 be 28 f7 1e bd 6b e6 c8 bd
       -0.05238707 -0.1486802 -0.038809925 -0.09809574
000230 19 d0 12 be 0f b7 a4 3d 19 f1 86 3c e0 82 76 bd
       -0.14337195 0.08042728 0.016472386 -0.060183406
000240 cb 51 a6 bd 91 90 91 3d b7 dd 28 be 77 94 de 3d
       -0.081210695 0.07107652 -0.16490828 0.10868161
000250 01 f3 88 3d 27 20 e5 3d 16 f1 3d 3d a7 3a d0 3d
       0.06686974 0.11187773 0.046372496 0.10167437
000260 d9 13 67 3d 3e c5 f2 bd 0d d8 10 bd 7b df bc 3b
       0.056415413 -0.11854027 -0.035362292 0.0057639456
000270 e5 7a 63 bd 80 dc 93 bd d4 29 98 bd 54 cf 2f 3e
       -0.055537123 -0.072197914 -0.07429853 0.17168933
000280 2c 49 97 3d dc 2e 15 3e 31 16 de bd 62 aa d7 bc
       0.07387003 0.14568657 -0.108440764 -0.026326362
000290 65 cd 49 bd 71 47 dc bd 46 cf 0d 3c f7 2b e0 3d
       -0.049268145 -0.10755814 0.008655375 0.10945886
0002a0 8d 03 b5 bd cc d2 c5 bc 1a ea 25 bc 77 0c 00 be
       -0.08838568 -0.024148367 -0.010126615 -0.12504755
0002b0 4b ad b2 3d 63 d5 ee bd 1e 46 fc 3c ef 16 33 bd
       0.08724459 -0.11661794 0.030795153 -0.043723043
0002c0 89 3e 03 3e 38 80 f3 3d 59 3d 60 3d a2 10 ad 3d
       0.12816824 0.1188969 0.054746006 0.08450438
0002d0 7a 51 05 be f2 5c b0 bd b4 14 e5 3d 2f b6 5d 3d
       -0.13019362 -0.08611478 0.111855894 0.054128822
0002e0 f3 d0 f2 bd 65 d6 13 3e ca 2d 70 3d ac 68 a8 bd
       -0.1185626 0.14437254 0.058637418 -0.082230896
0002f0 e1 68 b0 bc 49 6d 09 3e 56 ff b3 3d 20 3b eb 3d
       -0.021534385 0.13420595 0.08788936 0.114858866
000300 5b 1b c0 3d 47 cd 44 3e ed 8b 1e 3e bc 91 b1 bd
       0.09380218 0.19218932 0.15483065 -0.08670375
000310 2c b3 da 3c 55 77 60 3c e9 75 32 3e 7c 13 a2 3d
       0.026696764 0.013700326 0.17427792 0.079138726
000320 11 3d bf b9 17 4e 4f 3e 03 fa 4c 3e c7 76 40 3e
       -0.00036475857 0.20244633 0.20017247 0.1879531
000330 75 61 25 3e 35 bd 46 bd 1b 59 7f bc ce 8a c4 3c
       0.16150458 -0.048520286 -0.015585209 0.023991968
000340 79 86 37 bc 09 a6 f8 3d 9c f5 17 3e 86 6d 3b bc
       -0.011201494 0.12141044 0.14839786 -0.011439687
000350 64 02 08 3e 12 f0 25 3e ea 42 98 3c b3 b1 fa 3d
       0.13282162 0.16204861 0.018586595 0.12240925
000360 b2 fc cc 3d 7f dd 22 bd 6c 0e d5 3d 95 83 82 3d
       0.10009135 -0.039762016 0.104031414 0.063727535
000370 6e c5 ff 3d 55 1d 03 3e 69 0a c2 3c f6 94 30 3e
       0.124888286 0.12804158 0.023686605 0.17244324
000380 cd 4a 1e 3e 55 e1 0d be bb 4f 04 bd 10 a2 de bd
       0.15458222 -0.13855489 -0.0323026 -0.10870755
000390 15 4c 22 bd 17 fe 89 3c f5 b6 55 bd fc 0b 8c 3d
       -0.03962334 0.016844792 -0.052176435 0.06838223
0003a0 ab 1f cb bd b5 6f af 3d 9d 3c 6f bd a8 14 92 3c
       -0.099181496 0.08566228 -0.058407415 0.017832115
0003b0 06 eb be bd 7f 2a 05 be 58 4e d8 bd f8 ac e5 bd
       -0.09322171 -0.13004492 -0.10561818 -0.11214632
0003c0 98 43 da 3d 04 8a 96 bd 76 94 a2 3d b2 3c 35 3c
       0.10657424 -0.07350543 0.07938473 0.011061834
0003d0 2c 55 1f bd da 2f a0 bd ca 93 8c bd c6 d4 15 be
       -0.038899586 -0.07821627 -0.06864126 -0.14631948
0003e0 6d 23 ad bd 89 c5 a6 bd be 83 13 3d 5c 09 3a be
       -0.084540226 -0.081431456 0.03601431 -0.18167633
0003f0 11 bc 17 3d 8f c9 6b 3d 32 bd 12 3e 59 4d fb 3c
       0.03704459 0.057565268 0.14329985 0.03067653

sequential/conv2d_1/Conv2D f4 [64, 3, 3, 32]
000000 04 8c 40 3c 41 55 9f 3c 9a 63 b7 3d 6d b0 b4 bd
       0.011752132 0.019449832 0.08954544 -0.08822713
000010 81 ff b3 bd 8e 53 f5 bc 1a c5 d9 3c cd 69 62 bd
       -0.08788968 -0.029947069 0.026583243 -0.05527668
000020 10 2d b6 bc 2b 3b 2e 3d d0 95 84 3d 67 3f 9a bd
       -0.022238284 0.042536896 0.06473887 -0.07531624
000030 19 49 d7 bc 5c 15 77 bd c6 49 73 bc a0 39 34 bd
       -0.026279973 -0.060323104 -0.014849132 -0.044000268
000040 1f e9 50 bd 54 b4 08 3c 80 ce 51 3d db de 88 bd
       -0.05100357 0.008343775 0.051222324 -0.06683131
000050 25 e2 79 bd 0c 42 33 bc fc 12 44 bc 24 f8 03 3d
       -0.061006684 -0.01094104 -0.011967417 0.032219067
000060 fa dd 49 3d 33 00 d3 bd 46 5b 61 3d 65 e2 d6 bd
       0.04928396 -0.103027724 0.055018686 -0.104924
000070 ef 9b e3 3c 88 1b b8 bb d7 b6 43 3d dc 63 94 3c
       0.027784316 -0.0056185164 0.04778179 0.018114023
000080 b3 32 a4 bd 41 58 a2 bd d3 de 8a 3c 41 71 2d 3d
       -0.080174826 -0.07926989 0.016951954 0.042344335
000090 8c 57 c9 b7 da eb fb 3d 98 4e c4 3d e8 f9 e3 3c
       -2.4001834e-05 0.123008445 0.09585303 0.027829126
0000a0 20 c7 2b 3b a5 3b b2 bd 79 5e 59 bd 2f 00 6f bd
       0.0026211217 -0.087027825 -0.05306861 -0.058349784
0000b0 b7 ae d5 bc eb 25 40 3d 98 30 f4 3b 71 a9 98 bb
       -0.026084287 0.04691116 0.007452082 -0.004658871
0000c0 90 71 c1 bd c8 9d 73 3d 1f 2b cd 3c 1b c1 1d 3d
       -0.094454885 0.059476644 0.025044976 0.038514238
0000d0 8a 5e cd bd 23 55 05 3d 8a 67 ff 3b cc 79 85 3d
       -0.100277975 0.032551896 0.0077943252 0.065173715
0000e0 8d 8c 9c 3d e4 2b 26 bd 88 e8 1d 3d 07 06 94 bb
       0.076439954 -0.0405692 0.038551837 -0.00451732
0000f0 cc 37 86 3d f0 b3 18 3d b6 04 73 3c 80 ad b3 bc
       0.06553611 0.037280977 0.014832666 -0.021933317
000100 1a 00 f2 3c d5 e3 27 bd 59 4b 9d 3d ad df 84 3d
       0.029541064 -0.040988762 0.07680387 0.06487975
000110 a4 5e 6a 3d 14 bb 9b 3d 00 97 62 3d f0 85 ff b9
       0.057219163 0.07604042 0.055319786 -0.0004873718
000120 82 55 6c bd 3e 00 61 3d af 70 30 bc 6e e2 98 3d
       -0.057698734 0.05493187 -0.010769053 0.07465063
000130 f5 f9 8b 3d d9 5f 36 bb 5b 27 84 3d 56 ee 05 bd
       0.06834785 -0.0027828126 0.06452819 -0.032697998
000140 fe 82 b6 3c e7 6f 1d bd b0 39 5b 3d c3 d3 9c 3d
       0.022279259 -0.038436797 0.053521812 0.07657578
000150 4a b0 6f 3d df 01 48 bd 2e 61 82 bd 7a 5c dd bc
       0.05851773 -0.04882991 -0.06366192 -0.027021635
000160 db 0f 99 bd 5f 73 4b bc fb 59 39 bd 96 70 87 3d
       -0.07473727 -0.012417643 -0.045251828 0.06613271
000170 ff dc 0a bc 27 56 7f bc 76 5b 85 bd 72 5d 86 3d
       -0.008475541 -0.015584505 -0.065115854 0.06560792
000180 3d 35 c0 bd 18 12 21 bd 57 bd ef 3d ce 74 90 bd
       -0.093851544 -0.039323896 0.117060356 -0.07053529
000190 55 4c 6a 3b d8 96 47 bd 1e c5 33 bd 08 8a c3 3b
       0.0035751064 -0.04872784 -0.043889157 0.0059673823
0001a0 39 9b 9f bd ee 4e 85 3d 80 9e de 3d e7 97 fc bb
       -0.07793278 0.06509195 0.10870075 -0.007708538
0001b0 4e 15 16 bd 12 b2 0f bc 40 f3 a0 3d 4a d1 52 3c
       -0.03664141 -0.008770483 0.07858896 0.012867281
0001c0 8f ef 20 bd 20 b2 f5 bb 6a 28 ff 3c 13 d5 d2 3d
       -0.03929096 -0.007498041 0.0311472 0.10294547
0001d0 37 25 08 3d c5 21 81 3d 34 30 a9 bd da e8 11 bd
       0.033238616 0.06305269 -0.08261147 -0.035622455
0001e0 b2 d0 d7 3c 0d b9 4c 3d 80 78 a2 3c a4 5d 82 3d
       0.02634463 0.049981166 0.01983285 0.06365517
0001f0 a6 8e 25 3d 8e ba c1 bd 4f 85 88 bc cd 56 18 3e
       0.040419243 -0.094594106 -0.016665129 0.14876862
000200 ff f3 91 3c 6e 19 d0 3b a9 b7 5d 3d d1 50 7e 3c
       0.017816542 0.0063506877 0.05413023 0.015522198
000210 09 47 25 3d 16 e2 e2 bc 09 35 bb 3d 64 32 a5 bc
       0.040350948 -0.027695697 0.09140975 -0.02016563
000220 b2 c0 b4 3d 37 4f b6 3d 84 9a af 3d 8f 61 ac 3d
       0.08825816 0.08901828 0.085743934 0.08417045
000230 ac ff 4a 3b 4a 9b 62 3c 46 a4 95 bc 8e 9b 60 3d
       0.0030975146 0.013830969 -0.018266808 0.05483585
000240 25 dd 06 bd ec 73 cf 3c 54 c3 19 bd 35 db 0a 3e
       -0.032925744 0.02532383 -0.037539795 0.13560183
000250 78 59 5e 3d d2 16 35 bd d0 a1 c0 3d e3 ec a5 3d
       0.054284543 -0.044211216 0.09405863 0.08101823
000260 93 e1 52 bd 52 ea 21 3d 0e 39 79 bd e3 e3 8a 3b
       -0.051484656 0.039530106 -0.060845427 0.004238592
000270 39 ac 0e bd 68 fa c6 bb 8a 6b 8a 3d 9d b0 fb 3d
       -0.034832213 -0.006072331 0.06758793 0.12289546
000280 5c 5d 82 3d 2b 38 26 bd de 1a 5b bb 16 dd a1 bd
       0.06365463 -0.04058091 -0.0033432762 -0.07903497
000290 4e 27 ca bc ab 44 81 bd cb e7 90 3d a4 d7 4a 3d
       -0.024676945 -0.063119255 0.07075461 0.049522057
0002a0 e2 a5 ae 3d f9 1d ac bd 60 3d 79 bc 92 84 4c bd
       0.085277334 -0.08404154 -0.015212387 -0.049931116
0002b0 ac 63 2c 3d 3a 83 b5 3b 84 b8 32 bd 70 00 7d 3d
       0.042087242 0.005539325 -0.043633 0.061767995
0002c0 f9 c1 28 bd 1e 89 1d bd 9d 95 39 3d 8c f9 60 3c
       -0.04120061 -0.038460843 0.045308698 0.013731372
0002d0 26 4d 17 bc 42 75 11 bd 4d ba 33 bd 5f fa 12 bd
       -0.009234702 -0.035512216 -0.043878842 -0.035883304
0002e0 78 bd e5 3b de 55 65 3d ea f5 93 3c 1e 95 e8 3c
       0.007011112 0.055990092 0.018061597 0.028391417
0002f0 dc 35 a8 3d 1b d9 f4 3c f7 2a 13 3c de f2 b6 bd
       0.08213398 0.02988868 0.008982412 -0.08933042
000300 c3 12 81 bd 64 15 82 bd 34 90 85 bd cf 64 9f bd
       -0.06302407 -0.06351736 -0.06521645 -0.077828996
000310 4a 6a d0 bc 8a 78 8b bc 2b 6b 39 3d 16 15 87 3b
       -0.025441308 -0.017025251 0.04526822 0.0041223867
000320 67 07 a8 bc 9f 7c eb 3c ad cf bf bc 8c e9 90 3c
       -0.020511342 0.028745947 -0.023414457 0.017689489
000330 22 14 00 bd c1 7d 30 3c e5 89 a4 bd a2 5b 75 3d
       -0.0312692 0.01077217 -0.08034114 0.05990184
000340 a9 54 85 3d 9a d7 2d bd da 25 72 3d ce f0 3f 3d
       0.06510288 -0.04244194 0.05911813 0.04686051
000350 b7 f9 06 bb 55 6e aa bd 24 bb 39 bd 3e 14 62 3d
       -0.002059562 -0.083218254 -0.045344487 0.055195086
000360 c8 f5 44 bd f9 1b fe bc 7b 4a 2c 3d a3 27 82 3c
       -0.048085958 -0.031019198 0.042063218 0.01588804
000370 de 12 eb 3c ae c3 a1 bd 00 66 09 3c 40 c0 83 bd
       0.02869552 -0.07898651 0.008386135 -0.06433153
000380 ed 86 20 3d d6 88 68 3d f9 4b 61 3d d0 ff 90 3d
       0.039191175 0.056771122 0.055004094 0.07080042
000390 e9 4e a1 bd 68 21 f0 3c c4 ee 06 3d 6b 55 9c 3c
       -0.07876379 0.029312804 0.03294255 0.0190837
0003a0 95 4f 9c 3d e2 c3 7b bb 87 a4 35 3d 99 0d 9f bd
       0.076323666 -0.0038416316 0.04434636 -0.077662654
0003b0 95 33 1b bc 71 e2 32 3c d0 a7 02 bd 71 75 91 3d
       -0.009472747 0.010918246 -0.03189832 0.07102478
0003c0 96 c2 62 b9 50 d3 67 3d f7 9e e8 3c 50 cc 16 3d
       -0.00021625528 0.056598008 0.028396113 0.03681594
0003d0 1d 0f c8 bc a0 b9 d1 bb a2 cf a1 bb 7e 4c 2c bd
       -0.02442127 -0.006400302 -0.004938082 -0.042065136
0003e0 fd cd 46 bd f5 ba b4 3d 3a 07 b0 bd 82 3e 36 bd
       -0.04853629 0.08824722 -0.08595128 -0.044493206
0003f0 1c 0d d1 3c c9 ec e2 3c 90 61 89 3d ed 6f 90 3d
       0.025518946 0.027700799 0.06708062 0.07052598

sequential/dense/BiasAdd/ReadVariableOp f4 [32]
000000 af fe 42 bc 3a b0 34 bc 2f a0 62 bb 85 ae 35 bc
       -0.011901542 -0.011028344 -0.003458034 -0.011088972
000010 be 67 40 bc dc 76 c4 bb 6e 9a 3f bc 3d 0a dd 3c
       -0.011743484 -0.0059956145 -0.011694534 0.026982421
000020 39 e3 35 bc bb 24 af bb b5 0f d6 3c 21 24 ca 3c
       -0.011101537 -0.005344955 0.026130537 0.02467543
000030 17 be 3a bc 75 80 60 bb 9a 3a 8c bc 72 0d fd bc
       -0.01139786 -0.0034256254 -0.017117787 -0.0308902
000040 56 b8 2c bc 56 c0 84 bc 28 09 e9 bb 00 00 00 00
       -0.010541996 -0.016204994 -0.007111687 0.0
000050 e3 60 2a bc 08 0f ed 3c 2c ac 1a bc 44 b2 e7 3c
       -0.010399076 0.028937832 -0.009440463 0.028283246
000060 5d 30 e1 3c d9 de a7 bb 13 4a bb 3b 33 d5 d2 3c
       0.027488882 -0.005123001 0.0057156174 0.025736427
000070 b6 ef 69 bc d3 a7 0b bc 92 f2 e4 3c 01 26 57 bc
       -0.014278343 -0.008523899 0.027947698 -0.013131619

sequential/dense_1/BiasAdd/ReadVariableOp f4 [2]
000000 e0 dd ca bc e0 dd ca 3c
       -0.024764001 0.024764001

sequential/dense/MatMul f4 [32, 2304]
000000 5a e3 f4 3c 56 62 d4 3c 4e 67 0f bd 03 e8 e2 bc
       0.029893566 0.025925796 -0.03501063 -0.027698522
000010 81 b5 8f bd aa 9a 05 bd 70 35 0a bd 1f 26 19 bd
       -0.07017041 -0.032618202 -0.03374237 -0.03738987
000020 96 ec e6 3c 30 8a 1e 3d 53 58 00 bd 0d 13 83 bc
       0.028188985 0.038706005 -0.031334233 -0.016000295
000030 a1 50 54 3c 02 29 cf 3b ca bb 40 bd d1 1e 25 3d
       0.012958677 0.006322027 -0.04705409 0.040312592
000040 d4 30 86 bc cb 15 ef bb fc f1 cc bc 24 ec 8f 3c
       -0.016380705 -0.007296299 -0.02501773 0.017568655
000050 f4 ea 37 bd 73 85 13 bd 44 e2 a9 3c df 54 c7 3c
       -0.044901803 -0.03601594 0.020737775 0.024332462
000060 30 1f 09 bd a2 35 44 bc 90 a6 0b bd 83 66 1f 3d
       -0.03347701 -0.011975678 -0.034094393 0.038916122
000070 7f bd 5d 3d af 65 fc ba 08 c1 0f bd d4 e9 e4 bc
       0.054135796 -0.0019256378 -0.0350962 -0.02794353
000080 8b 5f e5 bc 58 f7 d3 3c 86 33 5a bd 6a 7c 18 bd
       -0.02799966 0.025874779 -0.053271793 -0.037228025
000090 43 48 dc 3c 24 4d 22 3d 91 f9 a6 3c bf 1e aa bc
       0.026889926 0.03962435 0.020382674 -0.020766614
0000a0 c5 97 06 bd 6d 3a a4 3c 79 fb d0 3b 69 cd 85 bc
       -0.032859582 0.02004739 0.006377634 -0.016333299
0000b0 c4 a4 0e 3d dc a5 09 3c ee 9d b4 39 2a 42 e5 bb
       0.0348251 0.00840136 0.00034449942 -0.0069964128
0000c0 3b 26 6d bd 69 89 17 3d 96 45 55 bd 30 77 7f bd
       -0.057897788 0.03699628 -0.052068315 -0.062369525
0000d0 a8 9c 08 bc 53 d1 7f 3d 36 51 2a bb d9 b1 88 bc
       -0.008338131 0.062455487 -0.0025988347 -0.016686367
0000e0 19 a0 b3 3b d1 80 24 bd b6 2c 39 3d a0 31 39 3c
       0.0054817316 -0.04016191 0.045208655 0.011303335
0000f0 c3 73 7b 3d bb e1 c3 3c d9 2c 3d 3c 4c 7f 4e bd
       0.061389696 0.023911348 0.011546337 -0.05041437
000100 c5 26 21 3c 8e 97 45 3c 8a 5c da 3c 08 1e ff 3c
       0.0098359035 0.012060059 0.026655454 0.03114225
000110 7f 4a 86 bd 27 94 41 3c 7d c3 7e 3c 10 53 70 bd
       -0.06557178 0.011815107 0.015549538 -0.058672965
000120 8f 6c 07 3d 2f 3b 03 3d ca 50 e1 3b 02 a5 f8 3c
       0.033062514 0.032038864 0.006876086 0.03035212
000130 74 61 fd bc 58 64 55 3d d6 64 2f bd 64 d8 d8 3c
       -0.030930258 0.05209765 -0.042820774 0.02647037
000140 b4 a3 0b bd 31 f8 8d bc a0 dd 19 bd 82 96 e0 3c
       -0.034091666 -0.017330261 -0.037564874 0.027415518
000150 d6 a2 a9 3c 74 af dd 3b a9 b8 19 bd 0c 2a 94 3c
       0.020707529 0.0067653004 -0.03752962 0.018086456
000160 d0 f0 8b bd f2 5f 75 3d 6e 78 25 bd 23 57 1c bd
       -0.06833041 0.059905954 -0.040398054 -0.038169038
000170 92 dd 04 3b f8 97 91 3d 09 01 27 3d 4d 18 27 bd
       0.0020273668 0.07109064 0.04077247 -0.04079466
000180 db 4f 9c bc 78 8c 9b 3c 13 61 b7 bc fe ea 4f 3c
       -0.019081047 0.01898788 -0.022385156 0.012690304
000190 ed 87 14 3c 1c 69 16 3d 74 8e cb 3c f2 0b 6a bd
       0.00906561 0.036721334 0.0248482 -0.0571403
0001a0 e3 80 36 bc 8c 1e 4c 3d bb 3a 6a 3d e7 da 86 3b
       -0.011139127 0.04983382 0.057184916 0.0041154507
0001b0 8a f2 43 bc d6 16 6a bc d1 d5 06 bd d4 f4 0e 3d
       -0.011959681 -0.014287671 -0.032918755 0.034901455
0001c0 6b 97 88 bc 1f 37 d1 bc 86 b8 c4 bc e6 07 ba 3c
       -0.016673764 -0.02553898 -0.024013769 0.022708844
0001d0 e8 68 55 bd cb eb 70 bc f2 c5 ca 3c 79 f7 3e 3c
       -0.052102 -0.014704655 0.02475259 0.011655682
0001e0 59 34 36 bd e6 ed 00 3c 17 2e d2 3c d7 fd fd bc
       -0.044483516 0.007869219 0.025656743 -0.03100483
0001f0 93 9e 8a 3d ae dc 03 bc 15 a1 c2 bc 9b dd 95 3c
       0.06768527 -0.00804822 -0.02375845 0.018294146
000200 c5 4d ec bc 7b 4c b2 3c bd 3f 1b bc 5c e1 ba bc
       -0.028845677 0.021764984 -0.009475646 -0.022812538
000210 b6 7c e5 bc 21 4d 51 3d d1 cc 1a bc 7b 1b 61 bd
       -0.028013568 0.051098946 -0.009448246 -0.054957848
000220 89 01 a5 bb f6 8e 3f bd a1 4c aa 3c 1f 1d 8f 3b
       -0.0050355834 -0.046767198 0.020788493 0.004367485
000230 f4 c5 86 3c e0 f3 d9 bc e6 ec 96 3c c1 41 79 3d
       0.016451813 -0.026605546 0.018423509 0.060853723
000240 e2 81 7f 3c 7a a4 8a 3d 82 4f 6d bd d5 1d 2f 3d
       0.015594931 0.06769653 -0.057937153 0.04275306
000250 78 d6 25 3d e7 25 23 3d 03 e2 5f bb df 69 84 bc
       0.040487736 0.03983107 -0.0034161813 -0.016163765
000260 a6 1b 89 bd 0c ac 25 3d f4 f5 f6 bc 20 45 75 3b
       -0.06694727 0.04044728 -0.030146576 0.0037425235
000270 2e d5 4b bd a7 46 6c 3d 43 2d 86 bc bc 5e 46 3c
       -0.04976385 0.057684567 -0.016379004 0.012107547
000280 2c c3 79 3b 90 fe 7e 3c 75 b4 36 3c ec 44 a5 3b
       0.0038110716 0.015563622 0.011151423 0.0050436165
000290 37 14 29 3d b8 1d 5b 3c 70 14 e3 3c 3e e9 82 bd
       0.041279044 0.013373785 0.027719706 -0.06392144
0002a0 93 ec 85 bc b0 ef 14 3d 81 5d 42 3d 72 91 22 bd
       -0.016348159 0.036361396 0.047452454 -0.03968949
0002b0 3e 15 61 bc 34 73 91 bc ab 70 ca 3c 28 c0 70 3d
       -0.013737975 -0.017755128 0.024711927 0.058777004
0002c0 9c 55 4a bd c7 b2 01 bd cf d6 f6 3c 09 9a e0 3c
       -0.04939805 -0.031664636 0.030131726 0.0274172
0002d0 1c d3 27 bd 72 1d be bc 48 65 13 bd 22 48 8f 3c
       -0.040972814 -0.0232074 -0.03598526 0.01749045
0002e0 76 b7 9a 3c ef df 05 3d 5e 32 e1 3b 92 56 52 bd
       0.01888631 0.032684263 0.0068724593 -0.05135209
0002f0 7b ab c7 bc 0a 6e 51 3c da 55 8e bc 22 90 bc 3b
       -0.02437376 0.012782583 -0.017374922 0.0057544867
000300 72 88 89 bc 17 af 62 bb b4 e8 15 bd c8 32 28 3d
       -0.016788695 -0.0034589225 -0.036598876 0.041064054
000310 bb 1b 1e bd 22 fa 2d bc b8 d4 0e 3d 68 45 9e bd
       -0.038600665 -0.010618718 0.034870833 -0.07728082
000320 9d f9 c5 bc 27 6e 64 ba 80 5b bd bb aa ca 06 bd
       -0.024166876 -0.0008713924 -0.00577873 -0.03290812
000330 9f 27 1a bd 92 11 34 bc 50 e0 4b 3c f4 c0 0f 3d
       -0.037635442 -0.010990517 0.012443617 0.035096124
000340 66 81 25 bd d5 14 dd 3b b6 53 80 bd 84 a6 32 bc
       -0.040406607 0.006746868 -0.062659666 -0.010903958
000350 25 43 d6 bc 06 c1 71 3d 1a 37 4b bc 96 de 60 3d
       -0.026155064 0.059021972 -0.012403274 0.054899774
000360 13 01 21 3c bc 13 c9 bc 45 60 cb bc 9a ee 0c 3d
       0.009826916 -0.024545543 -0.024826178 0.034407236
000370 ba a8 8f bc 42 19 9f 3c 8d da 43 bc 1f 97 f8 3c
       -0.01753651 0.019421224 -0.011953962 0.030345498
000380 a2 ac db bc a6 ab 43 bd f5 8f 02 bd f2 f7 de 3c
       -0.026815716 -0.04777112 -0.03187557 0.027217839
000390 cd f8 81 bb 28 cf b6 3c 68 ff 1e 3d 96 85 2f bc
       -0.003966427 0.022315577 0.038817793 -0.010713002
0003a0 99 a8 19 3d 7e 47 90 bd 94 9b c4 bc e9 1e 96 bc
       0.037514303 -0.07044886 -0.023999967 -0.018325286
0003b0 5c 1c a1 bb e9 e7 b4 bc fb 51 38 3c 0c c5 82 bc
       -0.004916711 -0.02208324 0.011250014 -0.0159631
0003c0 f4 85 19 bd 4d b6 00 3c 29 65 99 bc 2f 1a a9 3c
       -0.037481263 0.007855964 -0.018724995 0.020642368
0003d0 ca cc 07 3d b2 f9 ab bc 3e 48 1d 3d 1a 37 79 3c
       0.033154286 -0.020993087 0.038398974 0.015210891
0003e0 8c 87 40 bd c0 47 77 bc aa 12 37 bd b1 4b d5 3c
       -0.047004268 -0.01509279 -0.044695534 0.026037069
0003f0 02 a8 cb 3b 79 e9 9e 3c 69 08 1c 3c 2f 93 17 bd
       0.0062150965 0.019398438 0.0095234895 -0.0370056

sequential/dense_1/MatMul f4 [2, 32]
000000 66 37 0f be 81 85 a0 3e 41 c6 6e be f4 f7 1a 3e
       -0.13985977 0.31351855 -0.23317815 0.15133649
000010 53 c8 a4 3c 61 d9 59 3e f1 67 ab 3e 6b ec aa be
       0.020115053 0.2127433 0.33477738 -0.33383498
000020 be 04 e1 3d df 79 be be 40 4f 33 be 7f 0a 01 3e
       0.109872326 -0.37202355 -0.175107 0.1260166
000030 db 1a d1 3e f7 bf 31 bd 9e 62 d6 3d d2 e4 a7 3e
       0.40840802 -0.043395963 0.104680285 0.32791764
000040 bd 27 f1 3e 94 22 f0 bc fd 09 d3 3e 14 bf cd bd
       0.4710063 -0.029313363 0.41218558 -0.10046211
000050 38 4a 8c be f1 d1 70 be 0a 42 9e 3e 1b cf 81 bd
       -0.27400374 -0.23517586 0.3090976 -0.0633833
000060 42 ed 45 be 19 e3 b8 bd 5f a6 ba 3e a6 6f ed be
       -0.19328788 -0.090276904 0.36455056 -0.46374243
000070 c0 ee a0 3e cd d4 9f 3e de 86 b1 be 57 15 ee 3e
       0.31432152 0.31217042 -0.34673208 0.46500656
000080 4f 3d 9c be 0d eb e3 be be ea d3 3d e7 63 07 be
       -0.30515525 -0.44515267 0.10347508 -0.13221703
000090 60 58 34 be 83 98 54 3e 91 b2 2c be f5 4c ed bd
       -0.17611837 0.20761304 -0.16864993 -0.11586944
0000a0 fd eb 9c be b0 48 27 3e ba 54 c9 3e 53 75 a2 3e
       -0.30648795 0.16336322 0.39322454 0.31730136
0000b0 ad 4b 38 bd fc 22 49 3e 77 c3 43 bd 27 71 e1 be
       -0.044994045 0.19642252 -0.04779383 -0.4403164
0000c0 36 2a 94 be 1d cc c2 be 17 61 d1 be 96 4a 4d be
       -0.28938454 -0.3804635 -0.40894386 -0.20047984
0000d0 4d 85 6c be f8 40 b7 3e 35 5a 46 be 00 c2 ca 3d
       -0.23097725 0.35791755 -0.19370349 0.09900284
0000e0 bb f9 bf 3e 55 bc 1d 3e 87 df ce 3e ae 73 9f 3e
       0.37495217 0.15403874 0.40404913 0.31142944
0000f0 07 fe ac be f6 ce 0e 3d 18 63 8e bc 36 5c 6f 3e
       -0.33787557 0.034865342 -0.017381236 0.2337502
